Script started on 2023-05-24 12:39:16+08:00 [TERM="xterm-256color" TTY="/dev/pts/7" COLUMNS="144" LINES="14"]
[?2004h]0;pingmu123@LAPTOP-SA8SOC9R: ~/torch-mlir/examples/DeObfTest[01;32mpingmu123@LAPTOP-SA8SOC9R[00m:[01;34m~/torch-mlir/examples/DeObfTest[00m$ exitpython test_all.py 
[?2004lLeNet5(
  (conv1): Conv2d(1, 6, kernel_size=(5, 5), stride=(1, 1))
  (conv2): Conv2d(6, 16, kernel_size=(5, 5), stride=(1, 1))
  (fc1): Linear(in_features=256, out_features=120, bias=True)
  (fc2): Linear(in_features=120, out_features=84, bias=True)
  (fc3): Linear(in_features=84, out_features=10, bias=True)
)
================
origin torch mlir
================
module attributes {torch.debug_module_name = "LeNet5"} {
  func.func @forward(%arg0: !torch.vtensor<[1,1,28,28],f32>) -> !torch.vtensor<[1,10],f32> {
    %int0 = torch.constant.int 0
    %int1 = torch.constant.int 1
    %float1.000000e00 = torch.constant.float 1.000000e+00
    %int-1 = torch.constant.int -1
    %false = torch.constant.bool false
    %0 = torch.vtensor.literal(dense<[0.0651603192, -0.0661661476, 0.0724986196, -0.0981579124, 0.0247178376, -0.0197601262, 0.0809485614, -0.0991860181, 0.0791024938, 0.0613553897]> : tensor<10xf32>) : !torch.vtensor<[10],f32>
    %1 = torch.vtensor.literal(dense_resource<__elided__> : tensor<10x84xf32>) : !torch.vtensor<[10,84],f32>
    %2 = torch.vtensor.literal(dense_resource<__elided__> : tensor<84xf32>) : !torch.vtensor<[84],f32>
    %3 = torch.vtensor.literal(dense_resource<__elided__> : tensor<84x120xf32>) : !torch.vtensor<[84,120],f32>
    %4 = torch.vtensor.literal(dense_resource<__elided__> : tensor<120xf32>) : !torch.vtensor<[120],f32>
    %5 = torch.vtensor.literal(dense_resource<__elided__> : tensor<120x256xf32>) : !torch.vtensor<[120,256],f32>
    %6 = torch.vtensor.literal(dense_resource<__elided__> : tensor<16xf32>) : !torch.vtensor<[16],f32>
    %7 = torch.vtensor.literal(dense_resource<__elided__> : tensor<16x6x5x5xf32>) : !torch.vtensor<[16,6,5,5],f32>
    %8 = torch.vtensor.literal(dense<[-0.164500147, -0.120521381, 0.109060742, 0.159952626, 0.164114043, 0.114845656]> : tensor<6xf32>) : !torch.vtensor<[6],f32>
    %9 = torch.vtensor.literal(dense_resource<__elided__> : tensor<6x1x5x5xf32>) : !torch.vtensor<[6,1,5,5],f32>
    %int2 = torch.constant.int 2
    %10 = torch.prim.ListConstruct %int1, %int1 : (!torch.int, !torch.int) -> !torch.list<int>
    %11 = torch.prim.ListConstruct %int0, %int0 : (!torch.int, !torch.int) -> !torch.list<int>
    %12 = torch.prim.ListConstruct  : () -> !torch.list<int>
    %13 = torch.aten.convolution %arg0, %9, %8, %10, %11, %10, %false, %12, %int1 : !torch.vtensor<[1,1,28,28],f32>, !torch.vtensor<[6,1,5,5],f32>, !torch.vtensor<[6],f32>, !torch.list<int>, !torch.list<int>, !torch.list<int>, !torch.bool, !torch.list<int>, !torch.int -> !torch.vtensor<[1,6,24,24],f32>
    %14 = torch.aten.relu %13 : !torch.vtensor<[1,6,24,24],f32> -> !torch.vtensor<[1,6,24,24],f32>
    %15 = torch.prim.ListConstruct %int2, %int2 : (!torch.int, !torch.int) -> !torch.list<int>
    %16 = torch.aten.max_pool2d %14, %15, %15, %11, %10, %false : !torch.vtensor<[1,6,24,24],f32>, !torch.list<int>, !torch.list<int>, !torch.list<int>, !torch.list<int>, !torch.bool -> !torch.vtensor<[1,6,12,12],f32>
    %17 = torch.prim.ListConstruct  : () -> !torch.list<int>
    %18 = torch.aten.convolution %16, %7, %6, %10, %11, %10, %false, %17, %int1 : !torch.vtensor<[1,6,12,12],f32>, !torch.vtensor<[16,6,5,5],f32>, !torch.vtensor<[16],f32>, !torch.list<int>, !torch.list<int>, !torch.list<int>, !torch.bool, !torch.list<int>, !torch.int -> !torch.vtensor<[1,16,8,8],f32>
    %19 = torch.aten.relu %18 : !torch.vtensor<[1,16,8,8],f32> -> !torch.vtensor<[1,16,8,8],f32>
    %20 = torch.aten.max_pool2d %19, %15, %15, %11, %10, %false : !torch.vtensor<[1,16,8,8],f32>, !torch.list<int>, !torch.list<int>, !torch.list<int>, !torch.list<int>, !torch.bool -> !torch.vtensor<[1,16,4,4],f32>
    %21 = torch.prim.ListConstruct %int1, %int-1 : (!torch.int, !torch.int) -> !torch.list<int>
    %22 = torch.aten.view %20, %21 : !torch.vtensor<[1,16,4,4],f32>, !torch.list<int> -> !torch.vtensor<[1,256],f32>
    %23 = torch.aten.transpose.int %5, %int0, %int1 : !torch.vtensor<[120,256],f32>, !torch.int, !torch.int -> !torch.vtensor<[256,120],f32>
    %24 = torch.aten.mm %22, %23 : !torch.vtensor<[1,256],f32>, !torch.vtensor<[256,120],f32> -> !torch.vtensor<[1,120],f32>
    %25 = torch.aten.add.Tensor %24, %4, %float1.000000e00 : !torch.vtensor<[1,120],f32>, !torch.vtensor<[120],f32>, !torch.float -> !torch.vtensor<[1,120],f32>
    %26 = torch.aten.relu %25 : !torch.vtensor<[1,120],f32> -> !torch.vtensor<[1,120],f32>
    %27 = torch.aten.transpose.int %3, %int0, %int1 : !torch.vtensor<[84,120],f32>, !torch.int, !torch.int -> !torch.vtensor<[120,84],f32>
    %28 = torch.aten.mm %26, %27 : !torch.vtensor<[1,120],f32>, !torch.vtensor<[120,84],f32> -> !torch.vtensor<[1,84],f32>
    %29 = torch.aten.add.Tensor %28, %2, %float1.000000e00 : !torch.vtensor<[1,84],f32>, !torch.vtensor<[84],f32>, !torch.float -> !torch.vtensor<[1,84],f32>
    %30 = torch.aten.relu %29 : !torch.vtensor<[1,84],f32> -> !torch.vtensor<[1,84],f32>
    %31 = torch.aten.transpose.int %1, %int0, %int1 : !torch.vtensor<[10,84],f32>, !torch.int, !torch.int -> !torch.vtensor<[84,10],f32>
    %32 = torch.aten.mm %30, %31 : !torch.vtensor<[1,84],f32>, !torch.vtensor<[84,10],f32> -> !torch.vtensor<[1,10],f32>
    %33 = torch.aten.add.Tensor %32, %0, %float1.000000e00 : !torch.vtensor<[1,10],f32>, !torch.vtensor<[10],f32>, !torch.float -> !torch.vtensor<[1,10],f32>
    return %33 : !torch.vtensor<[1,10],f32>
  }
}

3
0
There is only one kernel, return directly. 
1
2
================
after Obfuscations
================
Obfuscation Passes:
    WidenLayerPass
    InsertConvsPass
    Jump this Obfuscation
    InsertConvsPass
    Jump this Obfuscation
    InsertConvsPass
    InsertSkipPass
    DummyAdditionPass
    InsertLinearsPass
    KernelWideningPass
    Jump this Obfuscation
    Jump this Obfuscation
    Jump this Obfuscation
    Jump this Obfuscation
    BranchLayerPass
    KernelWideningPass
    Jump this Obfuscation
    BranchLayerPass
    InsertSkipPass
    Jump this Obfuscation
    Jump this Obfuscation
    Jump this Obfuscation
    Jump this Obfuscation
    InsertLinearsPass
    InsertConvsPass
    InsertConvsPass
    InsertSkipPass
    DummyAdditionPass
    InsertConvsPass
    Jump this Obfuscation
    BranchLayerPass
    InsertConvsPass
    Jump this Obfuscation
    InsertConvsPass
    InsertConvsPass
    BranchLayerPass
    Jump this Obfuscation
    Jump this Obfuscation
    Jump this Obfuscation
    InsertLinearsPass
    InsertConvsPass
    Jump this Obfuscation
    DummyAdditionPass
    Jump this Obfuscation
    DummyAdditionPass
    InsertLinearsPass
    InsertSkipPass
    InsertSkipPass
    KernelWideningPass
    Jump this Obfuscation
    InsertLinearsPass
    BranchLayerPass
    InsertLinearsPass
    Jump this Obfuscation
    Jump this Obfuscation
    Jump this Obfuscation
    Jump this Obfuscation
    BranchLayerPass
    BranchLayerPass
    Jump this Obfuscation
    Jump this Obfuscation
    InsertConvsPass
    KernelWideningPass
    Jump this Obfuscation
    DummyAdditionPass
    Jump this Obfuscation
    InsertConvsPass
    InsertSkipPass
    Jump this Obfuscation
    Jump this Obfuscation
    Jump this Obfuscation
    InsertLinearsPass
    Jump this Obfuscation
    InsertLinearsPass
    KernelWideningPass
    InsertLinearsPass
    InsertLinearsPass
    InsertConvsPass
    Jump this Obfuscation
    InsertLinearsPass
    InsertLinearsPass
    Jump this Obfuscation
    InsertLinearsPass
    InsertConvsPass
    Jump this Obfuscation
module attributes {torch.debug_module_name = "LeNet5"} {
  func.func @forward(%arg0: !torch.vtensor<[1,1,28,28],f32>) -> !torch.vtensor<[1,10],f32> {
    %int0 = torch.constant.int 0
    %int1 = torch.constant.int 1
    %float1.000000e00 = torch.constant.float 1.000000e+00
    %int-1 = torch.constant.int -1
    %false = torch.constant.bool false
    %0 = torch.vtensor.literal(dense<[0.0651603192, -0.0661661476, 0.0724986196, -0.0981579124, 0.0247178376, -0.0197601262, 0.0809485614, -0.0991860181, 0.0791024938, 0.0613553897]> : tensor<10xf32>) : !torch.vtensor<[10],f32>
    %1 = torch.vtensor.literal(dense_resource<__elided__> : tensor<10x84xf32>) : !torch.vtensor<[10,84],f32>
    %2 = torch.vtensor.literal(dense_resource<__elided__> : tensor<84xf32>) : !torch.vtensor<[84],f32>
    %3 = torch.vtensor.literal(dense_resource<__elided__> : tensor<84x120xf32>) : !torch.vtensor<[84,120],f32>
    %4 = torch.vtensor.literal(dense_resource<__elided__> : tensor<120xf32>) : !torch.vtensor<[120],f32>
    %5 = torch.vtensor.literal(dense_resource<__elided__> : tensor<120x256xf32>) : !torch.vtensor<[120,256],f32>
    %6 = torch.vtensor.literal(dense_resource<__elided__> : tensor<16xf32>) : !torch.vtensor<[16],f32>
    %7 = torch.vtensor.literal(dense_resource<__elided__> : tensor<16x6x5x5xf32>) : !torch.vtensor<[16,6,5,5],f32>
    %8 = torch.vtensor.literal(dense_resource<__elided__> : tensor<6x1x5x5xf32>) : !torch.vtensor<[6,1,5,5],f32>
    %int2 = torch.constant.int 2
    %9 = torch.prim.ListConstruct %int1, %int1 : (!torch.int, !torch.int) -> !torch.list<int>
    %10 = torch.prim.ListConstruct %int0, %int0 : (!torch.int, !torch.int) -> !torch.list<int>
    %11 = torch.prim.ListConstruct  : () -> !torch.list<int>
    %int3 = torch.constant.int 3
    %int3_0 = torch.constant.int 3
    %12 = torch.prim.ListConstruct %int3, %int3_0 : (!torch.int, !torch.int) -> !torch.list<int>
    %13 = torch.vtensor.literal(dense<0.000000e+00> : tensor<1x1x1x1xf32>) : !torch.vtensor<[1,1,1,1],f32>
    %14 = torch.vtensor.literal(dense<0.000000e+00> : tensor<1xf32>) : !torch.vtensor<[1],f32>
    %15 = torch.vtensor.literal(dense<0.000000e+00> : tensor<1x1x1x1xf32>) : !torch.vtensor<[1,1,1,1],f32>
    %int3_1 = torch.constant.int 3
    %int3_2 = torch.constant.int 3
    %16 = torch.prim.ListConstruct %int3_1, %int3_2 : (!torch.int, !torch.int) -> !torch.list<int>
    %17 = torch.vtensor.literal(dense<0.000000e+00> : tensor<1x1x3x3xf32>) : !torch.vtensor<[1,1,3,3],f32>
    %int4 = torch.constant.int 4
    %int4_3 = torch.constant.int 4
    %18 = torch.prim.ListConstruct %int4, %int4_3 : (!torch.int, !torch.int) -> !torch.list<int>
    %19 = torch.vtensor.literal(dense<0.000000e+00> : tensor<1x1x7x7xf32>) : !torch.vtensor<[1,1,7,7],f32>
    %int6 = torch.constant.int 6
    %int6_4 = torch.constant.int 6
    %20 = torch.prim.ListConstruct %int6, %int6_4 : (!torch.int, !torch.int) -> !torch.list<int>
    %21 = torch.aten.convolution %arg0, %19, %14, %9, %20, %9, %false, %11, %int1 : !torch.vtensor<[1,1,28,28],f32>, !torch.vtensor<[1,1,7,7],f32>, !torch.vtensor<[1],f32>, !torch.list<int>, !torch.list<int>, !torch.list<int>, !torch.bool, !torch.list<int>, !torch.int -> !torch.vtensor<[1,1,28,28],f32>
    %float0.000000e00 = torch.constant.float 0.000000e+00
    %22 = torch.aten.add.Tensor %arg0, %21, %float0.000000e00 : !torch.vtensor<[1,1,28,28],f32>, !torch.vtensor<[1,1,28,28],f32>, !torch.float -> !torch.vtensor<[1,1,28,28],f32>
    %23 = torch.vtensor.literal(dense_resource<__elided__> : tensor<2x1x11x11xf32>) : !torch.vtensor<[2,1,11,11],f32>
    %24 = torch.vtensor.literal(dense<[-0.164500147, -0.120521381]> : tensor<2xf32>) : !torch.vtensor<[2],f32>
    %25 = torch.vtensor.literal(dense<0.000000e+00> : tensor<1x1x1x1xf32>) : !torch.vtensor<[1,1,1,1],f32>
    %26 = torch.vtensor.literal(dense<0.000000e+00> : tensor<1xf32>) : !torch.vtensor<[1],f32>
    %27 = torch.aten.convolution %22, %25, %26, %9, %12, %9, %false, %11, %int1 : !torch.vtensor<[1,1,28,28],f32>, !torch.vtensor<[1,1,1,1],f32>, !torch.vtensor<[1],f32>, !torch.list<int>, !torch.list<int>, !torch.list<int>, !torch.bool, !torch.list<int>, !torch.int -> !torch.vtensor<[1,1,28,28],f32>
    %float0.000000e00_5 = torch.constant.float 0.000000e+00
    %28 = torch.aten.add.Tensor %22, %27, %float0.000000e00_5 : !torch.vtensor<[1,1,28,28],f32>, !torch.vtensor<[1,1,28,28],f32>, !torch.float -> !torch.vtensor<[1,1,28,28],f32>
    %29 = torch.aten.convolution %28, %23, %24, %9, %12, %9, %false, %11, %int1 : !torch.vtensor<[1,1,28,28],f32>, !torch.vtensor<[2,1,11,11],f32>, !torch.vtensor<[2],f32>, !torch.list<int>, !torch.list<int>, !torch.list<int>, !torch.bool, !torch.list<int>, !torch.int -> !torch.vtensor<[1,2,24,24],f32>
    %30 = torch.vtensor.literal(dense_resource<__elided__> : tensor<1x1x11x11xf32>) : !torch.vtensor<[1,1,11,11],f32>
    %31 = torch.vtensor.literal(dense<0.109060742> : tensor<1xf32>) : !torch.vtensor<[1],f32>
    %32 = torch.aten.convolution %22, %30, %31, %9, %12, %9, %false, %11, %int1 : !torch.vtensor<[1,1,28,28],f32>, !torch.vtensor<[1,1,11,11],f32>, !torch.vtensor<[1],f32>, !torch.list<int>, !torch.list<int>, !torch.list<int>, !torch.bool, !torch.list<int>, !torch.int -> !torch.vtensor<[1,1,24,24],f32>
    %33 = torch.vtensor.literal(dense_resource<__elided__> : tensor<1x1x11x11xf32>) : !torch.vtensor<[1,1,11,11],f32>
    %34 = torch.vtensor.literal(dense<0.159952626> : tensor<1xf32>) : !torch.vtensor<[1],f32>
    %35 = torch.aten.convolution %22, %33, %34, %9, %12, %9, %false, %11, %int1 : !torch.vtensor<[1,1,28,28],f32>, !torch.vtensor<[1,1,11,11],f32>, !torch.vtensor<[1],f32>, !torch.list<int>, !torch.list<int>, !torch.list<int>, !torch.bool, !torch.list<int>, !torch.int -> !torch.vtensor<[1,1,24,24],f32>
    %36 = torch.prim.ListConstruct %29, %32, %35 : (!torch.vtensor<[1,2,24,24],f32>, !torch.vtensor<[1,1,24,24],f32>, !torch.vtensor<[1,1,24,24],f32>) -> !torch.list<vtensor>
    %int1_6 = torch.constant.int 1
    %37 = torch.aten.cat %36, %int1_6 : !torch.list<vtensor>, !torch.int -> !torch.vtensor<[1,4,24,24],f32>
    %38 = torch.vtensor.literal(dense_resource<__elided__> : tensor<1x1x11x11xf32>) : !torch.vtensor<[1,1,11,11],f32>
    %39 = torch.vtensor.literal(dense<0.164114043> : tensor<1xf32>) : !torch.vtensor<[1],f32>
    %40 = torch.aten.convolution %arg0, %38, %39, %9, %12, %9, %false, %11, %int1 : !torch.vtensor<[1,1,28,28],f32>, !torch.vtensor<[1,1,11,11],f32>, !torch.vtensor<[1],f32>, !torch.list<int>, !torch.list<int>, !torch.list<int>, !torch.bool, !torch.list<int>, !torch.int -> !torch.vtensor<[1,1,24,24],f32>
    %41 = torch.vtensor.literal(dense_resource<__elided__> : tensor<1x1x11x11xf32>) : !torch.vtensor<[1,1,11,11],f32>
    %42 = torch.vtensor.literal(dense<0.114845656> : tensor<1xf32>) : !torch.vtensor<[1],f32>
    %43 = torch.aten.convolution %arg0, %41, %42, %9, %12, %9, %false, %11, %int1 : !torch.vtensor<[1,1,28,28],f32>, !torch.vtensor<[1,1,11,11],f32>, !torch.vtensor<[1],f32>, !torch.list<int>, !torch.list<int>, !torch.list<int>, !torch.bool, !torch.list<int>, !torch.int -> !torch.vtensor<[1,1,24,24],f32>
    %44 = torch.prim.ListConstruct %37, %40, %43 : (!torch.vtensor<[1,4,24,24],f32>, !torch.vtensor<[1,1,24,24],f32>, !torch.vtensor<[1,1,24,24],f32>) -> !torch.list<vtensor>
    %int1_7 = torch.constant.int 1
    %45 = torch.aten.cat %44, %int1_7 : !torch.list<vtensor>, !torch.int -> !torch.vtensor<[1,6,24,24],f32>
    %int0_8 = torch.constant.int 0
    %int1_9 = torch.constant.int 1
    %false_10 = torch.constant.bool false
    %46 = torch.prim.ListConstruct %int1_9, %int1_9 : (!torch.int, !torch.int) -> !torch.list<int>
    %47 = torch.prim.ListConstruct  : () -> !torch.list<int>
    %int0_11 = torch.constant.int 0
    %int1_12 = torch.constant.int 1
    %false_13 = torch.constant.bool false
    %48 = torch.prim.ListConstruct %int1_12, %int1_12 : (!torch.int, !torch.int) -> !torch.list<int>
    %49 = torch.prim.ListConstruct  : () -> !torch.list<int>
    %50 = torch.aten.relu %45 : !torch.vtensor<[1,6,24,24],f32> -> !torch.vtensor<[1,6,24,24],f32>
    %51 = torch.vtensor.literal(dense<0.000000e+00> : tensor<1x6x24x24xf32>) : !torch.vtensor<[1,6,24,24],f32>
    %float0.000000e00_14 = torch.constant.float 0.000000e+00
    %52 = torch.aten.add.Tensor %50, %51, %float0.000000e00_14 : !torch.vtensor<[1,6,24,24],f32>, !torch.vtensor<[1,6,24,24],f32>, !torch.float -> !torch.vtensor<[1,6,24,24],f32>
    %53 = torch.vtensor.literal(dense<0.000000e+00> : tensor<1x6x24x24xf32>) : !torch.vtensor<[1,6,24,24],f32>
    %float0.000000e00_15 = torch.constant.float 0.000000e+00
    %54 = torch.aten.add.Tensor %52, %53, %float0.000000e00_15 : !torch.vtensor<[1,6,24,24],f32>, !torch.vtensor<[1,6,24,24],f32>, !torch.float -> !torch.vtensor<[1,6,24,24],f32>
    %55 = torch.vtensor.literal(dense<0.000000e+00> : tensor<1x6x24x24xf32>) : !torch.vtensor<[1,6,24,24],f32>
    %float0.000000e00_16 = torch.constant.float 0.000000e+00
    %56 = torch.aten.add.Tensor %54, %55, %float0.000000e00_16 : !torch.vtensor<[1,6,24,24],f32>, !torch.vtensor<[1,6,24,24],f32>, !torch.float -> !torch.vtensor<[1,6,24,24],f32>
    %57 = torch.vtensor.literal(dense_resource<__elided__> : tensor<6x6x7x7xf32>) : !torch.vtensor<[6,6,7,7],f32>
    %58 = torch.vtensor.literal(dense<0.000000e+00> : tensor<6xf32>) : !torch.vtensor<[6],f32>
    %int12 = torch.constant.int 12
    %int4_17 = torch.constant.int 4
    %59 = torch.prim.ListConstruct %int12, %int12 : (!torch.int, !torch.int) -> !torch.list<int>
    %60 = torch.prim.ListConstruct %int4_17, %int4_17 : (!torch.int, !torch.int) -> !torch.list<int>
    %61 = torch.aten.convolution %56, %57, %58, %48, %59, %60, %false_13, %49, %int1_12 : !torch.vtensor<[1,6,24,24],f32>, !torch.vtensor<[6,6,7,7],f32>, !torch.vtensor<[6],f32>, !torch.list<int>, !torch.list<int>, !torch.list<int>, !torch.bool, !torch.list<int>, !torch.int -> !torch.vtensor<[1,6,24,24],f32>
    %int0_18 = torch.constant.int 0
    %int1_19 = torch.constant.int 1
    %false_20 = torch.constant.bool false
    %62 = torch.prim.ListConstruct %int1_19, %int1_19 : (!torch.int, !torch.int) -> !torch.list<int>
    %63 = torch.prim.ListConstruct  : () -> !torch.list<int>
    %64 = torch.aten.relu %61 : !torch.vtensor<[1,6,24,24],f32> -> !torch.vtensor<[1,6,24,24],f32>
    %65 = torch.vtensor.literal(dense_resource<__elided__> : tensor<6x6x9x9xf32>) : !torch.vtensor<[6,6,9,9],f32>
    %66 = torch.vtensor.literal(dense<0.000000e+00> : tensor<6xf32>) : !torch.vtensor<[6],f32>
    %int4_21 = torch.constant.int 4
    %int1_22 = torch.constant.int 1
    %67 = torch.prim.ListConstruct %int4_21, %int4_21 : (!torch.int, !torch.int) -> !torch.list<int>
    %68 = torch.prim.ListConstruct %int1_22, %int1_22 : (!torch.int, !torch.int) -> !torch.list<int>
    %69 = torch.aten.convolution %64, %65, %66, %62, %67, %68, %false_20, %63, %int1_19 : !torch.vtensor<[1,6,24,24],f32>, !torch.vtensor<[6,6,9,9],f32>, !torch.vtensor<[6],f32>, !torch.list<int>, !torch.list<int>, !torch.list<int>, !torch.bool, !torch.list<int>, !torch.int -> !torch.vtensor<[1,6,24,24],f32>
    %70 = torch.aten.relu %69 : !torch.vtensor<[1,6,24,24],f32> -> !torch.vtensor<[1,6,24,24],f32>
    %71 = torch.vtensor.literal(dense<0.000000e+00> : tensor<1x6x24x24xf32>) : !torch.vtensor<[1,6,24,24],f32>
    %float0.000000e00_23 = torch.constant.float 0.000000e+00
    %72 = torch.aten.add.Tensor %70, %71, %float0.000000e00_23 : !torch.vtensor<[1,6,24,24],f32>, !torch.vtensor<[1,6,24,24],f32>, !torch.float -> !torch.vtensor<[1,6,24,24],f32>
    %73 = torch.vtensor.literal(dense<0.000000e+00> : tensor<1x6x24x24xf32>) : !torch.vtensor<[1,6,24,24],f32>
    %float0.000000e00_24 = torch.constant.float 0.000000e+00
    %74 = torch.aten.add.Tensor %72, %73, %float0.000000e00_24 : !torch.vtensor<[1,6,24,24],f32>, !torch.vtensor<[1,6,24,24],f32>, !torch.float -> !torch.vtensor<[1,6,24,24],f32>
    %75 = torch.vtensor.literal(dense<0.000000e+00> : tensor<1x6x24x24xf32>) : !torch.vtensor<[1,6,24,24],f32>
    %float0.000000e00_25 = torch.constant.float 0.000000e+00
    %76 = torch.aten.add.Tensor %74, %75, %float0.000000e00_25 : !torch.vtensor<[1,6,24,24],f32>, !torch.vtensor<[1,6,24,24],f32>, !torch.float -> !torch.vtensor<[1,6,24,24],f32>
    %77 = torch.vtensor.literal(dense<0.000000e+00> : tensor<1x6x24x24xf32>) : !torch.vtensor<[1,6,24,24],f32>
    %float0.000000e00_26 = torch.constant.float 0.000000e+00
    %78 = torch.aten.add.Tensor %76, %77, %float0.000000e00_26 : !torch.vtensor<[1,6,24,24],f32>, !torch.vtensor<[1,6,24,24],f32>, !torch.float -> !torch.vtensor<[1,6,24,24],f32>
    %79 = torch.vtensor.literal(dense<0.000000e+00> : tensor<1x6x24x24xf32>) : !torch.vtensor<[1,6,24,24],f32>
    %float0.000000e00_27 = torch.constant.float 0.000000e+00
    %80 = torch.aten.add.Tensor %78, %79, %float0.000000e00_27 : !torch.vtensor<[1,6,24,24],f32>, !torch.vtensor<[1,6,24,24],f32>, !torch.float -> !torch.vtensor<[1,6,24,24],f32>
    %81 = torch.vtensor.literal(dense_resource<__elided__> : tensor<6x6x5x5xf32>) : !torch.vtensor<[6,6,5,5],f32>
    %82 = torch.vtensor.literal(dense<0.000000e+00> : tensor<6xf32>) : !torch.vtensor<[6],f32>
    %int6_28 = torch.constant.int 6
    %int3_29 = torch.constant.int 3
    %83 = torch.prim.ListConstruct %int6_28, %int6_28 : (!torch.int, !torch.int) -> !torch.list<int>
    %84 = torch.prim.ListConstruct %int3_29, %int3_29 : (!torch.int, !torch.int) -> !torch.list<int>
    %85 = torch.aten.convolution %80, %81, %82, %46, %83, %84, %false_10, %47, %int1_9 : !torch.vtensor<[1,6,24,24],f32>, !torch.vtensor<[6,6,5,5],f32>, !torch.vtensor<[6],f32>, !torch.list<int>, !torch.list<int>, !torch.list<int>, !torch.bool, !torch.list<int>, !torch.int -> !torch.vtensor<[1,6,24,24],f32>
    %int0_30 = torch.constant.int 0
    %int1_31 = torch.constant.int 1
    %false_32 = torch.constant.bool false
    %86 = torch.prim.ListConstruct %int1_31, %int1_31 : (!torch.int, !torch.int) -> !torch.list<int>
    %87 = torch.prim.ListConstruct  : () -> !torch.list<int>
    %int0_33 = torch.constant.int 0
    %int1_34 = torch.constant.int 1
    %false_35 = torch.constant.bool false
    %88 = torch.prim.ListConstruct %int1_34, %int1_34 : (!torch.int, !torch.int) -> !torch.list<int>
    %89 = torch.prim.ListConstruct  : () -> !torch.list<int>
    %int0_36 = torch.constant.int 0
    %int1_37 = torch.constant.int 1
    %false_38 = torch.constant.bool false
    %90 = torch.prim.ListConstruct %int1_37, %int1_37 : (!torch.int, !torch.int) -> !torch.list<int>
    %91 = torch.prim.ListConstruct  : () -> !torch.list<int>
    %92 = torch.aten.relu %85 : !torch.vtensor<[1,6,24,24],f32> -> !torch.vtensor<[1,6,24,24],f32>
    %93 = torch.vtensor.literal(dense_resource<__elided__> : tensor<6x6x7x7xf32>) : !torch.vtensor<[6,6,7,7],f32>
    %94 = torch.vtensor.literal(dense<0.000000e+00> : tensor<6xf32>) : !torch.vtensor<[6],f32>
    %int9 = torch.constant.int 9
    %int3_39 = torch.constant.int 3
    %95 = torch.prim.ListConstruct %int9, %int9 : (!torch.int, !torch.int) -> !torch.list<int>
    %96 = torch.prim.ListConstruct %int3_39, %int3_39 : (!torch.int, !torch.int) -> !torch.list<int>
    %97 = torch.aten.convolution %92, %93, %94, %90, %95, %96, %false_38, %91, %int1_37 : !torch.vtensor<[1,6,24,24],f32>, !torch.vtensor<[6,6,7,7],f32>, !torch.vtensor<[6],f32>, !torch.list<int>, !torch.list<int>, !torch.list<int>, !torch.bool, !torch.list<int>, !torch.int -> !torch.vtensor<[1,6,24,24],f32>
    %int0_40 = torch.constant.int 0
    %int1_41 = torch.constant.int 1
    %false_42 = torch.constant.bool false
    %98 = torch.prim.ListConstruct %int1_41, %int1_41 : (!torch.int, !torch.int) -> !torch.list<int>
    %99 = torch.prim.ListConstruct  : () -> !torch.list<int>
    %100 = torch.aten.relu %97 : !torch.vtensor<[1,6,24,24],f32> -> !torch.vtensor<[1,6,24,24],f32>
    %101 = torch.vtensor.literal(dense_resource<__elided__> : tensor<6x6x11x11xf32>) : !torch.vtensor<[6,6,11,11],f32>
    %102 = torch.vtensor.literal(dense<0.000000e+00> : tensor<6xf32>) : !torch.vtensor<[6],f32>
    %int25 = torch.constant.int 25
    %int5 = torch.constant.int 5
    %103 = torch.prim.ListConstruct %int25, %int25 : (!torch.int, !torch.int) -> !torch.list<int>
    %104 = torch.prim.ListConstruct %int5, %int5 : (!torch.int, !torch.int) -> !torch.list<int>
    %105 = torch.aten.convolution %100, %101, %102, %98, %103, %104, %false_42, %99, %int1_41 : !torch.vtensor<[1,6,24,24],f32>, !torch.vtensor<[6,6,11,11],f32>, !torch.vtensor<[6],f32>, !torch.list<int>, !torch.list<int>, !torch.list<int>, !torch.bool, !torch.list<int>, !torch.int -> !torch.vtensor<[1,6,24,24],f32>
    %106 = torch.aten.relu %105 : !torch.vtensor<[1,6,24,24],f32> -> !torch.vtensor<[1,6,24,24],f32>
    %107 = torch.vtensor.literal(dense<0.000000e+00> : tensor<1x6x24x24xf32>) : !torch.vtensor<[1,6,24,24],f32>
    %float0.000000e00_43 = torch.constant.float 0.000000e+00
    %108 = torch.aten.add.Tensor %106, %107, %float0.000000e00_43 : !torch.vtensor<[1,6,24,24],f32>, !torch.vtensor<[1,6,24,24],f32>, !torch.float -> !torch.vtensor<[1,6,24,24],f32>
    %109 = torch.vtensor.literal(dense<0.000000e+00> : tensor<1x6x24x24xf32>) : !torch.vtensor<[1,6,24,24],f32>
    %float0.000000e00_44 = torch.constant.float 0.000000e+00
    %110 = torch.aten.add.Tensor %108, %109, %float0.000000e00_44 : !torch.vtensor<[1,6,24,24],f32>, !torch.vtensor<[1,6,24,24],f32>, !torch.float -> !torch.vtensor<[1,6,24,24],f32>
    %111 = torch.vtensor.literal(dense<0.000000e+00> : tensor<1x6x24x24xf32>) : !torch.vtensor<[1,6,24,24],f32>
    %float0.000000e00_45 = torch.constant.float 0.000000e+00
    %112 = torch.aten.add.Tensor %110, %111, %float0.000000e00_45 : !torch.vtensor<[1,6,24,24],f32>, !torch.vtensor<[1,6,24,24],f32>, !torch.float -> !torch.vtensor<[1,6,24,24],f32>
    %113 = torch.vtensor.literal(dense_resource<__elided__> : tensor<6x6x9x9xf32>) : !torch.vtensor<[6,6,9,9],f32>
    %114 = torch.vtensor.literal(dense<0.000000e+00> : tensor<6xf32>) : !torch.vtensor<[6],f32>
    %int12_46 = torch.constant.int 12
    %int3_47 = torch.constant.int 3
    %115 = torch.prim.ListConstruct %int12_46, %int12_46 : (!torch.int, !torch.int) -> !torch.list<int>
    %116 = torch.prim.ListConstruct %int3_47, %int3_47 : (!torch.int, !torch.int) -> !torch.list<int>
    %117 = torch.aten.convolution %112, %113, %114, %88, %115, %116, %false_35, %89, %int1_34 : !torch.vtensor<[1,6,24,24],f32>, !torch.vtensor<[6,6,9,9],f32>, !torch.vtensor<[6],f32>, !torch.list<int>, !torch.list<int>, !torch.list<int>, !torch.bool, !torch.list<int>, !torch.int -> !torch.vtensor<[1,6,24,24],f32>
    %118 = torch.aten.relu %117 : !torch.vtensor<[1,6,24,24],f32> -> !torch.vtensor<[1,6,24,24],f32>
    %119 = torch.vtensor.literal(dense<0.000000e+00> : tensor<1x6x24x24xf32>) : !torch.vtensor<[1,6,24,24],f32>
    %float0.000000e00_48 = torch.constant.float 0.000000e+00
    %120 = torch.aten.add.Tensor %118, %119, %float0.000000e00_48 : !torch.vtensor<[1,6,24,24],f32>, !torch.vtensor<[1,6,24,24],f32>, !torch.float -> !torch.vtensor<[1,6,24,24],f32>
    %121 = torch.vtensor.literal(dense<0.000000e+00> : tensor<1x6x24x24xf32>) : !torch.vtensor<[1,6,24,24],f32>
    %float0.000000e00_49 = torch.constant.float 0.000000e+00
    %122 = torch.aten.add.Tensor %120, %121, %float0.000000e00_49 : !torch.vtensor<[1,6,24,24],f32>, !torch.vtensor<[1,6,24,24],f32>, !torch.float -> !torch.vtensor<[1,6,24,24],f32>
    %123 = torch.vtensor.literal(dense<0.000000e+00> : tensor<1x6x24x24xf32>) : !torch.vtensor<[1,6,24,24],f32>
    %float0.000000e00_50 = torch.constant.float 0.000000e+00
    %124 = torch.aten.add.Tensor %122, %123, %float0.000000e00_50 : !torch.vtensor<[1,6,24,24],f32>, !torch.vtensor<[1,6,24,24],f32>, !torch.float -> !torch.vtensor<[1,6,24,24],f32>
    %125 = torch.vtensor.literal(dense<0.000000e+00> : tensor<1x6x24x24xf32>) : !torch.vtensor<[1,6,24,24],f32>
    %float0.000000e00_51 = torch.constant.float 0.000000e+00
    %126 = torch.aten.add.Tensor %124, %125, %float0.000000e00_51 : !torch.vtensor<[1,6,24,24],f32>, !torch.vtensor<[1,6,24,24],f32>, !torch.float -> !torch.vtensor<[1,6,24,24],f32>
    %127 = torch.vtensor.literal(dense_resource<__elided__> : tensor<6x6x3x3xf32>) : !torch.vtensor<[6,6,3,3],f32>
    %128 = torch.vtensor.literal(dense<0.000000e+00> : tensor<6xf32>) : !torch.vtensor<[6],f32>
    %int5_52 = torch.constant.int 5
    %int5_53 = torch.constant.int 5
    %129 = torch.prim.ListConstruct %int5_52, %int5_52 : (!torch.int, !torch.int) -> !torch.list<int>
    %130 = torch.prim.ListConstruct %int5_53, %int5_53 : (!torch.int, !torch.int) -> !torch.list<int>
    %131 = torch.vtensor.literal(dense<0.000000e+00> : tensor<6x6x1x1xf32>) : !torch.vtensor<[6,6,1,1],f32>
    %132 = torch.vtensor.literal(dense<0.000000e+00> : tensor<6xf32>) : !torch.vtensor<[6],f32>
    %133 = torch.aten.convolution %126, %131, %132, %86, %129, %130, %false_32, %87, %int1_31 : !torch.vtensor<[1,6,24,24],f32>, !torch.vtensor<[6,6,1,1],f32>, !torch.vtensor<[6],f32>, !torch.list<int>, !torch.list<int>, !torch.list<int>, !torch.bool, !torch.list<int>, !torch.int -> !torch.vtensor<[1,6,24,24],f32>
    %float0.000000e00_54 = torch.constant.float 0.000000e+00
    %134 = torch.aten.add.Tensor %126, %133, %float0.000000e00_54 : !torch.vtensor<[1,6,24,24],f32>, !torch.vtensor<[1,6,24,24],f32>, !torch.float -> !torch.vtensor<[1,6,24,24],f32>
    %135 = torch.aten.convolution %134, %127, %128, %86, %129, %130, %false_32, %87, %int1_31 : !torch.vtensor<[1,6,24,24],f32>, !torch.vtensor<[6,6,3,3],f32>, !torch.vtensor<[6],f32>, !torch.list<int>, !torch.list<int>, !torch.list<int>, !torch.bool, !torch.list<int>, !torch.int -> !torch.vtensor<[1,6,24,24],f32>
    %int0_55 = torch.constant.int 0
    %int1_56 = torch.constant.int 1
    %false_57 = torch.constant.bool false
    %136 = torch.prim.ListConstruct %int1_56, %int1_56 : (!torch.int, !torch.int) -> !torch.list<int>
    %137 = torch.prim.ListConstruct  : () -> !torch.list<int>
    %138 = torch.aten.relu %135 : !torch.vtensor<[1,6,24,24],f32> -> !torch.vtensor<[1,6,24,24],f32>
    %139 = torch.vtensor.literal(dense<0.000000e+00> : tensor<1x6x24x24xf32>) : !torch.vtensor<[1,6,24,24],f32>
    %float0.000000e00_58 = torch.constant.float 0.000000e+00
    %140 = torch.aten.add.Tensor %138, %139, %float0.000000e00_58 : !torch.vtensor<[1,6,24,24],f32>, !torch.vtensor<[1,6,24,24],f32>, !torch.float -> !torch.vtensor<[1,6,24,24],f32>
    %141 = torch.vtensor.literal(dense<0.000000e+00> : tensor<1x6x24x24xf32>) : !torch.vtensor<[1,6,24,24],f32>
    %float0.000000e00_59 = torch.constant.float 0.000000e+00
    %142 = torch.aten.add.Tensor %140, %141, %float0.000000e00_59 : !torch.vtensor<[1,6,24,24],f32>, !torch.vtensor<[1,6,24,24],f32>, !torch.float -> !torch.vtensor<[1,6,24,24],f32>
    %143 = torch.vtensor.literal(dense<0.000000e+00> : tensor<1x6x24x24xf32>) : !torch.vtensor<[1,6,24,24],f32>
    %float0.000000e00_60 = torch.constant.float 0.000000e+00
    %144 = torch.aten.add.Tensor %142, %143, %float0.000000e00_60 : !torch.vtensor<[1,6,24,24],f32>, !torch.vtensor<[1,6,24,24],f32>, !torch.float -> !torch.vtensor<[1,6,24,24],f32>
    %145 = torch.vtensor.literal(dense<0.000000e+00> : tensor<1x6x24x24xf32>) : !torch.vtensor<[1,6,24,24],f32>
    %float0.000000e00_61 = torch.constant.float 0.000000e+00
    %146 = torch.aten.add.Tensor %144, %145, %float0.000000e00_61 : !torch.vtensor<[1,6,24,24],f32>, !torch.vtensor<[1,6,24,24],f32>, !torch.float -> !torch.vtensor<[1,6,24,24],f32>
    %147 = torch.vtensor.literal(dense_resource<__elided__> : tensor<6x6x7x7xf32>) : !torch.vtensor<[6,6,7,7],f32>
    %148 = torch.vtensor.literal(dense<0.000000e+00> : tensor<6xf32>) : !torch.vtensor<[6],f32>
    %int12_62 = torch.constant.int 12
    %int4_63 = torch.constant.int 4
    %149 = torch.prim.ListConstruct %int12_62, %int12_62 : (!torch.int, !torch.int) -> !torch.list<int>
    %150 = torch.prim.ListConstruct %int4_63, %int4_63 : (!torch.int, !torch.int) -> !torch.list<int>
    %151 = torch.aten.convolution %146, %147, %148, %136, %149, %150, %false_57, %137, %int1_56 : !torch.vtensor<[1,6,24,24],f32>, !torch.vtensor<[6,6,7,7],f32>, !torch.vtensor<[6],f32>, !torch.list<int>, !torch.list<int>, !torch.list<int>, !torch.bool, !torch.list<int>, !torch.int -> !torch.vtensor<[1,6,24,24],f32>
    %int0_64 = torch.constant.int 0
    %int1_65 = torch.constant.int 1
    %false_66 = torch.constant.bool false
    %152 = torch.prim.ListConstruct %int1_65, %int1_65 : (!torch.int, !torch.int) -> !torch.list<int>
    %153 = torch.prim.ListConstruct  : () -> !torch.list<int>
    %int0_67 = torch.constant.int 0
    %int1_68 = torch.constant.int 1
    %false_69 = torch.constant.bool false
    %154 = torch.prim.ListConstruct %int1_68, %int1_68 : (!torch.int, !torch.int) -> !torch.list<int>
    %155 = torch.prim.ListConstruct  : () -> !torch.list<int>
    %156 = torch.aten.relu %151 : !torch.vtensor<[1,6,24,24],f32> -> !torch.vtensor<[1,6,24,24],f32>
    %157 = torch.vtensor.literal(dense<0.000000e+00> : tensor<1x6x24x24xf32>) : !torch.vtensor<[1,6,24,24],f32>
    %float0.000000e00_70 = torch.constant.float 0.000000e+00
    %158 = torch.aten.add.Tensor %156, %157, %float0.000000e00_70 : !torch.vtensor<[1,6,24,24],f32>, !torch.vtensor<[1,6,24,24],f32>, !torch.float -> !torch.vtensor<[1,6,24,24],f32>
    %159 = torch.vtensor.literal(dense<0.000000e+00> : tensor<1x6x24x24xf32>) : !torch.vtensor<[1,6,24,24],f32>
    %float0.000000e00_71 = torch.constant.float 0.000000e+00
    %160 = torch.aten.add.Tensor %158, %159, %float0.000000e00_71 : !torch.vtensor<[1,6,24,24],f32>, !torch.vtensor<[1,6,24,24],f32>, !torch.float -> !torch.vtensor<[1,6,24,24],f32>
    %161 = torch.vtensor.literal(dense<0.000000e+00> : tensor<1x6x24x24xf32>) : !torch.vtensor<[1,6,24,24],f32>
    %float0.000000e00_72 = torch.constant.float 0.000000e+00
    %162 = torch.aten.add.Tensor %160, %161, %float0.000000e00_72 : !torch.vtensor<[1,6,24,24],f32>, !torch.vtensor<[1,6,24,24],f32>, !torch.float -> !torch.vtensor<[1,6,24,24],f32>
    %int10 = torch.constant.int 10
    %int5_73 = torch.constant.int 5
    %163 = torch.prim.ListConstruct %int10, %int10 : (!torch.int, !torch.int) -> !torch.list<int>
    %164 = torch.prim.ListConstruct %int5_73, %int5_73 : (!torch.int, !torch.int) -> !torch.list<int>
    %165 = torch.vtensor.literal(dense_resource<__elided__> : tensor<1x6x5x5xf32>) : !torch.vtensor<[1,6,5,5],f32>
    %166 = torch.vtensor.literal(dense<0.000000e+00> : tensor<1xf32>) : !torch.vtensor<[1],f32>
    %167 = torch.aten.convolution %162, %165, %166, %154, %163, %164, %false_69, %155, %int1_68 : !torch.vtensor<[1,6,24,24],f32>, !torch.vtensor<[1,6,5,5],f32>, !torch.vtensor<[1],f32>, !torch.list<int>, !torch.list<int>, !torch.list<int>, !torch.bool, !torch.list<int>, !torch.int -> !torch.vtensor<[1,1,24,24],f32>
    %168 = torch.vtensor.literal(dense_resource<__elided__> : tensor<3x6x5x5xf32>) : !torch.vtensor<[3,6,5,5],f32>
    %169 = torch.vtensor.literal(dense<0.000000e+00> : tensor<3xf32>) : !torch.vtensor<[3],f32>
    %170 = torch.aten.convolution %162, %168, %169, %154, %163, %164, %false_69, %155, %int1_68 : !torch.vtensor<[1,6,24,24],f32>, !torch.vtensor<[3,6,5,5],f32>, !torch.vtensor<[3],f32>, !torch.list<int>, !torch.list<int>, !torch.list<int>, !torch.bool, !torch.list<int>, !torch.int -> !torch.vtensor<[1,3,24,24],f32>
    %171 = torch.vtensor.literal(dense_resource<__elided__> : tensor<1x6x5x5xf32>) : !torch.vtensor<[1,6,5,5],f32>
    %172 = torch.vtensor.literal(dense<0.000000e+00> : tensor<1xf32>) : !torch.vtensor<[1],f32>
    %173 = torch.aten.convolution %162, %171, %172, %154, %163, %164, %false_69, %155, %int1_68 : !torch.vtensor<[1,6,24,24],f32>, !torch.vtensor<[1,6,5,5],f32>, !torch.vtensor<[1],f32>, !torch.list<int>, !torch.list<int>, !torch.list<int>, !torch.bool, !torch.list<int>, !torch.int -> !torch.vtensor<[1,1,24,24],f32>
    %174 = torch.vtensor.literal(dense_resource<__elided__> : tensor<1x6x5x5xf32>) : !torch.vtensor<[1,6,5,5],f32>
    %175 = torch.vtensor.literal(dense<0.000000e+00> : tensor<1xf32>) : !torch.vtensor<[1],f32>
    %176 = torch.aten.convolution %162, %174, %175, %154, %163, %164, %false_69, %155, %int1_68 : !torch.vtensor<[1,6,24,24],f32>, !torch.vtensor<[1,6,5,5],f32>, !torch.vtensor<[1],f32>, !torch.list<int>, !torch.list<int>, !torch.list<int>, !torch.bool, !torch.list<int>, !torch.int -> !torch.vtensor<[1,1,24,24],f32>
    %177 = torch.prim.ListConstruct %167, %170, %173, %176 : (!torch.vtensor<[1,1,24,24],f32>, !torch.vtensor<[1,3,24,24],f32>, !torch.vtensor<[1,1,24,24],f32>, !torch.vtensor<[1,1,24,24],f32>) -> !torch.list<vtensor>
    %int1_74 = torch.constant.int 1
    %178 = torch.aten.cat %177, %int1_74 : !torch.list<vtensor>, !torch.int -> !torch.vtensor<[1,6,24,24],f32>
    %179 = torch.aten.relu %178 : !torch.vtensor<[1,6,24,24],f32> -> !torch.vtensor<[1,6,24,24],f32>
    %180 = torch.vtensor.literal(dense<0.000000e+00> : tensor<1x6x24x24xf32>) : !torch.vtensor<[1,6,24,24],f32>
    %float0.000000e00_75 = torch.constant.float 0.000000e+00
    %181 = torch.aten.add.Tensor %179, %180, %float0.000000e00_75 : !torch.vtensor<[1,6,24,24],f32>, !torch.vtensor<[1,6,24,24],f32>, !torch.float -> !torch.vtensor<[1,6,24,24],f32>
    %182 = torch.vtensor.literal(dense<0.000000e+00> : tensor<1x6x24x24xf32>) : !torch.vtensor<[1,6,24,24],f32>
    %float0.000000e00_76 = torch.constant.float 0.000000e+00
    %183 = torch.aten.add.Tensor %181, %182, %float0.000000e00_76 : !torch.vtensor<[1,6,24,24],f32>, !torch.vtensor<[1,6,24,24],f32>, !torch.float -> !torch.vtensor<[1,6,24,24],f32>
    %184 = torch.vtensor.literal(dense<0.000000e+00> : tensor<1x6x24x24xf32>) : !torch.vtensor<[1,6,24,24],f32>
    %float0.000000e00_77 = torch.constant.float 0.000000e+00
    %185 = torch.aten.add.Tensor %183, %184, %float0.000000e00_77 : !torch.vtensor<[1,6,24,24],f32>, !torch.vtensor<[1,6,24,24],f32>, !torch.float -> !torch.vtensor<[1,6,24,24],f32>
    %int8 = torch.constant.int 8
    %int2_78 = torch.constant.int 2
    %186 = torch.prim.ListConstruct %int8, %int8 : (!torch.int, !torch.int) -> !torch.list<int>
    %187 = torch.prim.ListConstruct %int2_78, %int2_78 : (!torch.int, !torch.int) -> !torch.list<int>
    %188 = torch.vtensor.literal(dense_resource<__elided__> : tensor<1x6x9x9xf32>) : !torch.vtensor<[1,6,9,9],f32>
    %189 = torch.vtensor.literal(dense<0.000000e+00> : tensor<1xf32>) : !torch.vtensor<[1],f32>
    %190 = torch.aten.convolution %185, %188, %189, %152, %186, %187, %false_66, %153, %int1_65 : !torch.vtensor<[1,6,24,24],f32>, !torch.vtensor<[1,6,9,9],f32>, !torch.vtensor<[1],f32>, !torch.list<int>, !torch.list<int>, !torch.list<int>, !torch.bool, !torch.list<int>, !torch.int -> !torch.vtensor<[1,1,24,24],f32>
    %191 = torch.vtensor.literal(dense_resource<__elided__> : tensor<3x6x9x9xf32>) : !torch.vtensor<[3,6,9,9],f32>
    %192 = torch.vtensor.literal(dense<0.000000e+00> : tensor<3xf32>) : !torch.vtensor<[3],f32>
    %193 = torch.aten.convolution %185, %191, %192, %152, %186, %187, %false_66, %153, %int1_65 : !torch.vtensor<[1,6,24,24],f32>, !torch.vtensor<[3,6,9,9],f32>, !torch.vtensor<[3],f32>, !torch.list<int>, !torch.list<int>, !torch.list<int>, !torch.bool, !torch.list<int>, !torch.int -> !torch.vtensor<[1,3,24,24],f32>
    %194 = torch.vtensor.literal(dense_resource<__elided__> : tensor<1x6x9x9xf32>) : !torch.vtensor<[1,6,9,9],f32>
    %195 = torch.vtensor.literal(dense<0.000000e+00> : tensor<1xf32>) : !torch.vtensor<[1],f32>
    %196 = torch.aten.convolution %185, %194, %195, %152, %186, %187, %false_66, %153, %int1_65 : !torch.vtensor<[1,6,24,24],f32>, !torch.vtensor<[1,6,9,9],f32>, !torch.vtensor<[1],f32>, !torch.list<int>, !torch.list<int>, !torch.list<int>, !torch.bool, !torch.list<int>, !torch.int -> !torch.vtensor<[1,1,24,24],f32>
    %197 = torch.vtensor.literal(dense_resource<__elided__> : tensor<1x6x9x9xf32>) : !torch.vtensor<[1,6,9,9],f32>
    %198 = torch.vtensor.literal(dense<0.000000e+00> : tensor<1xf32>) : !torch.vtensor<[1],f32>
    %199 = torch.vtensor.literal(dense<0.000000e+00> : tensor<6x6x1x1xf32>) : !torch.vtensor<[6,6,1,1],f32>
    %200 = torch.vtensor.literal(dense<0.000000e+00> : tensor<6xf32>) : !torch.vtensor<[6],f32>
    %201 = torch.aten.convolution %185, %199, %200, %152, %186, %187, %false_66, %153, %int1_65 : !torch.vtensor<[1,6,24,24],f32>, !torch.vtensor<[6,6,1,1],f32>, !torch.vtensor<[6],f32>, !torch.list<int>, !torch.list<int>, !torch.list<int>, !torch.bool, !torch.list<int>, !torch.int -> !torch.vtensor<[1,6,24,24],f32>
    %float0.000000e00_79 = torch.constant.float 0.000000e+00
    %202 = torch.aten.add.Tensor %185, %201, %float0.000000e00_79 : !torch.vtensor<[1,6,24,24],f32>, !torch.vtensor<[1,6,24,24],f32>, !torch.float -> !torch.vtensor<[1,6,24,24],f32>
    %203 = torch.aten.convolution %202, %197, %198, %152, %186, %187, %false_66, %153, %int1_65 : !torch.vtensor<[1,6,24,24],f32>, !torch.vtensor<[1,6,9,9],f32>, !torch.vtensor<[1],f32>, !torch.list<int>, !torch.list<int>, !torch.list<int>, !torch.bool, !torch.list<int>, !torch.int -> !torch.vtensor<[1,1,24,24],f32>
    %204 = torch.prim.ListConstruct %190, %193, %196, %203 : (!torch.vtensor<[1,1,24,24],f32>, !torch.vtensor<[1,3,24,24],f32>, !torch.vtensor<[1,1,24,24],f32>, !torch.vtensor<[1,1,24,24],f32>) -> !torch.list<vtensor>
    %int1_80 = torch.constant.int 1
    %205 = torch.aten.cat %204, %int1_80 : !torch.list<vtensor>, !torch.int -> !torch.vtensor<[1,6,24,24],f32>
    %206 = torch.aten.relu %205 : !torch.vtensor<[1,6,24,24],f32> -> !torch.vtensor<[1,6,24,24],f32>
    %207 = torch.vtensor.literal(dense<0.000000e+00> : tensor<1x6x24x24xf32>) : !torch.vtensor<[1,6,24,24],f32>
    %float0.000000e00_81 = torch.constant.float 0.000000e+00
    %208 = torch.aten.add.Tensor %206, %207, %float0.000000e00_81 : !torch.vtensor<[1,6,24,24],f32>, !torch.vtensor<[1,6,24,24],f32>, !torch.float -> !torch.vtensor<[1,6,24,24],f32>
    %209 = torch.vtensor.literal(dense<0.000000e+00> : tensor<1x6x24x24xf32>) : !torch.vtensor<[1,6,24,24],f32>
    %float0.000000e00_82 = torch.constant.float 0.000000e+00
    %210 = torch.aten.add.Tensor %208, %209, %float0.000000e00_82 : !torch.vtensor<[1,6,24,24],f32>, !torch.vtensor<[1,6,24,24],f32>, !torch.float -> !torch.vtensor<[1,6,24,24],f32>
    %211 = torch.vtensor.literal(dense<0.000000e+00> : tensor<1x6x24x24xf32>) : !torch.vtensor<[1,6,24,24],f32>
    %float0.000000e00_83 = torch.constant.float 0.000000e+00
    %212 = torch.aten.add.Tensor %210, %211, %float0.000000e00_83 : !torch.vtensor<[1,6,24,24],f32>, !torch.vtensor<[1,6,24,24],f32>, !torch.float -> !torch.vtensor<[1,6,24,24],f32>
    %213 = torch.vtensor.literal(dense<0.000000e+00> : tensor<1x6x24x24xf32>) : !torch.vtensor<[1,6,24,24],f32>
    %float0.000000e00_84 = torch.constant.float 0.000000e+00
    %214 = torch.aten.add.Tensor %212, %213, %float0.000000e00_84 : !torch.vtensor<[1,6,24,24],f32>, !torch.vtensor<[1,6,24,24],f32>, !torch.float -> !torch.vtensor<[1,6,24,24],f32>
    %215 = torch.vtensor.literal(dense<0.000000e+00> : tensor<1x6x24x24xf32>) : !torch.vtensor<[1,6,24,24],f32>
    %float0.000000e00_85 = torch.constant.float 0.000000e+00
    %216 = torch.aten.add.Tensor %214, %215, %float0.000000e00_85 : !torch.vtensor<[1,6,24,24],f32>, !torch.vtensor<[1,6,24,24],f32>, !torch.float -> !torch.vtensor<[1,6,24,24],f32>
    %217 = torch.prim.ListConstruct %int2, %int2 : (!torch.int, !torch.int) -> !torch.list<int>
    %218 = torch.aten.max_pool2d %216, %217, %217, %10, %9, %false : !torch.vtensor<[1,6,24,24],f32>, !torch.list<int>, !torch.list<int>, !torch.list<int>, !torch.list<int>, !torch.bool -> !torch.vtensor<[1,6,12,12],f32>
    %219 = torch.prim.ListConstruct  : () -> !torch.list<int>
    %220 = torch.vtensor.literal(dense<0.000000e+00> : tensor<4x6x1x1xf32>) : !torch.vtensor<[4,6,1,1],f32>
    %221 = torch.vtensor.literal(dense<0.000000e+00> : tensor<4xf32>) : !torch.vtensor<[4],f32>
    %222 = torch.aten.convolution %218, %220, %221, %9, %10, %9, %false, %219, %int1 : !torch.vtensor<[1,6,12,12],f32>, !torch.vtensor<[4,6,1,1],f32>, !torch.vtensor<[4],f32>, !torch.list<int>, !torch.list<int>, !torch.list<int>, !torch.bool, !torch.list<int>, !torch.int -> !torch.vtensor<[1,4,12,12],f32>
    %223 = torch.vtensor.literal(dense<0.000000e+00> : tensor<1x6x1x1xf32>) : !torch.vtensor<[1,6,1,1],f32>
    %224 = torch.vtensor.literal(dense<0.000000e+00> : tensor<1xf32>) : !torch.vtensor<[1],f32>
    %225 = torch.aten.convolution %218, %223, %224, %9, %10, %9, %false, %219, %int1 : !torch.vtensor<[1,6,12,12],f32>, !torch.vtensor<[1,6,1,1],f32>, !torch.vtensor<[1],f32>, !torch.list<int>, !torch.list<int>, !torch.list<int>, !torch.bool, !torch.list<int>, !torch.int -> !torch.vtensor<[1,1,12,12],f32>
    %226 = torch.vtensor.literal(dense<0.000000e+00> : tensor<1x6x1x1xf32>) : !torch.vtensor<[1,6,1,1],f32>
    %227 = torch.vtensor.literal(dense<0.000000e+00> : tensor<1xf32>) : !torch.vtensor<[1],f32>
    %228 = torch.aten.convolution %218, %226, %227, %9, %10, %9, %false, %219, %int1 : !torch.vtensor<[1,6,12,12],f32>, !torch.vtensor<[1,6,1,1],f32>, !torch.vtensor<[1],f32>, !torch.list<int>, !torch.list<int>, !torch.list<int>, !torch.bool, !torch.list<int>, !torch.int -> !torch.vtensor<[1,1,12,12],f32>
    %229 = torch.prim.ListConstruct %222, %225, %228 : (!torch.vtensor<[1,4,12,12],f32>, !torch.vtensor<[1,1,12,12],f32>, !torch.vtensor<[1,1,12,12],f32>) -> !torch.list<vtensor>
    %int1_86 = torch.constant.int 1
    %230 = torch.aten.cat %229, %int1_86 : !torch.list<vtensor>, !torch.int -> !torch.vtensor<[1,6,12,12],f32>
    %float0.000000e00_87 = torch.constant.float 0.000000e+00
    %231 = torch.aten.add.Tensor %218, %230, %float0.000000e00_87 : !torch.vtensor<[1,6,12,12],f32>, !torch.vtensor<[1,6,12,12],f32>, !torch.float -> !torch.vtensor<[1,6,12,12],f32>
    %232 = torch.aten.convolution %231, %7, %6, %9, %10, %9, %false, %219, %int1 : !torch.vtensor<[1,6,12,12],f32>, !torch.vtensor<[16,6,5,5],f32>, !torch.vtensor<[16],f32>, !torch.list<int>, !torch.list<int>, !torch.list<int>, !torch.bool, !torch.list<int>, !torch.int -> !torch.vtensor<[1,16,8,8],f32>
    %int0_88 = torch.constant.int 0
    %int1_89 = torch.constant.int 1
    %false_90 = torch.constant.bool false
    %233 = torch.prim.ListConstruct %int1_89, %int1_89 : (!torch.int, !torch.int) -> !torch.list<int>
    %234 = torch.prim.ListConstruct  : () -> !torch.list<int>
    %235 = torch.aten.relu %232 : !torch.vtensor<[1,16,8,8],f32> -> !torch.vtensor<[1,16,8,8],f32>
    %236 = torch.vtensor.literal(dense<0.000000e+00> : tensor<1x16x8x8xf32>) : !torch.vtensor<[1,16,8,8],f32>
    %float0.000000e00_91 = torch.constant.float 0.000000e+00
    %237 = torch.aten.add.Tensor %235, %236, %float0.000000e00_91 : !torch.vtensor<[1,16,8,8],f32>, !torch.vtensor<[1,16,8,8],f32>, !torch.float -> !torch.vtensor<[1,16,8,8],f32>
    %238 = torch.vtensor.literal(dense<0.000000e+00> : tensor<1x16x8x8xf32>) : !torch.vtensor<[1,16,8,8],f32>
    %float0.000000e00_92 = torch.constant.float 0.000000e+00
    %239 = torch.aten.add.Tensor %237, %238, %float0.000000e00_92 : !torch.vtensor<[1,16,8,8],f32>, !torch.vtensor<[1,16,8,8],f32>, !torch.float -> !torch.vtensor<[1,16,8,8],f32>
    %240 = torch.vtensor.literal(dense<0.000000e+00> : tensor<1x16x8x8xf32>) : !torch.vtensor<[1,16,8,8],f32>
    %float0.000000e00_93 = torch.constant.float 0.000000e+00
    %241 = torch.aten.add.Tensor %239, %240, %float0.000000e00_93 : !torch.vtensor<[1,16,8,8],f32>, !torch.vtensor<[1,16,8,8],f32>, !torch.float -> !torch.vtensor<[1,16,8,8],f32>
    %242 = torch.vtensor.literal(dense<0.000000e+00> : tensor<1x16x8x8xf32>) : !torch.vtensor<[1,16,8,8],f32>
    %float0.000000e00_94 = torch.constant.float 0.000000e+00
    %243 = torch.aten.add.Tensor %241, %242, %float0.000000e00_94 : !torch.vtensor<[1,16,8,8],f32>, !torch.vtensor<[1,16,8,8],f32>, !torch.float -> !torch.vtensor<[1,16,8,8],f32>
    %244 = torch.vtensor.literal(dense<0.000000e+00> : tensor<1x16x8x8xf32>) : !torch.vtensor<[1,16,8,8],f32>
    %float0.000000e00_95 = torch.constant.float 0.000000e+00
    %245 = torch.aten.add.Tensor %243, %244, %float0.000000e00_95 : !torch.vtensor<[1,16,8,8],f32>, !torch.vtensor<[1,16,8,8],f32>, !torch.float -> !torch.vtensor<[1,16,8,8],f32>
    %246 = torch.vtensor.literal(dense_resource<__elided__> : tensor<16x16x3x3xf32>) : !torch.vtensor<[16,16,3,3],f32>
    %247 = torch.vtensor.literal(dense<0.000000e+00> : tensor<16xf32>) : !torch.vtensor<[16],f32>
    %int4_96 = torch.constant.int 4
    %int4_97 = torch.constant.int 4
    %248 = torch.prim.ListConstruct %int4_96, %int4_96 : (!torch.int, !torch.int) -> !torch.list<int>
    %249 = torch.prim.ListConstruct %int4_97, %int4_97 : (!torch.int, !torch.int) -> !torch.list<int>
    %250 = torch.vtensor.literal(dense<0.000000e+00> : tensor<16x16x1x1xf32>) : !torch.vtensor<[16,16,1,1],f32>
    %251 = torch.vtensor.literal(dense<0.000000e+00> : tensor<16xf32>) : !torch.vtensor<[16],f32>
    %252 = torch.aten.convolution %245, %250, %251, %233, %248, %249, %false_90, %234, %int1_89 : !torch.vtensor<[1,16,8,8],f32>, !torch.vtensor<[16,16,1,1],f32>, !torch.vtensor<[16],f32>, !torch.list<int>, !torch.list<int>, !torch.list<int>, !torch.bool, !torch.list<int>, !torch.int -> !torch.vtensor<[1,16,8,8],f32>
    %float0.000000e00_98 = torch.constant.float 0.000000e+00
    %253 = torch.aten.add.Tensor %245, %252, %float0.000000e00_98 : !torch.vtensor<[1,16,8,8],f32>, !torch.vtensor<[1,16,8,8],f32>, !torch.float -> !torch.vtensor<[1,16,8,8],f32>
    %254 = torch.aten.convolution %253, %246, %247, %233, %248, %249, %false_90, %234, %int1_89 : !torch.vtensor<[1,16,8,8],f32>, !torch.vtensor<[16,16,3,3],f32>, !torch.vtensor<[16],f32>, !torch.list<int>, !torch.list<int>, !torch.list<int>, !torch.bool, !torch.list<int>, !torch.int -> !torch.vtensor<[1,16,8,8],f32>
    %int0_99 = torch.constant.int 0
    %int1_100 = torch.constant.int 1
    %false_101 = torch.constant.bool false
    %255 = torch.prim.ListConstruct %int1_100, %int1_100 : (!torch.int, !torch.int) -> !torch.list<int>
    %256 = torch.prim.ListConstruct  : () -> !torch.list<int>
    %int0_102 = torch.constant.int 0
    %int1_103 = torch.constant.int 1
    %false_104 = torch.constant.bool false
    %257 = torch.prim.ListConstruct %int1_103, %int1_103 : (!torch.int, !torch.int) -> !torch.list<int>
    %258 = torch.prim.ListConstruct  : () -> !torch.list<int>
    %259 = torch.aten.relu %254 : !torch.vtensor<[1,16,8,8],f32> -> !torch.vtensor<[1,16,8,8],f32>
    %260 = torch.vtensor.literal(dense<0.000000e+00> : tensor<1x16x8x8xf32>) : !torch.vtensor<[1,16,8,8],f32>
    %float0.000000e00_105 = torch.constant.float 0.000000e+00
    %261 = torch.aten.add.Tensor %259, %260, %float0.000000e00_105 : !torch.vtensor<[1,16,8,8],f32>, !torch.vtensor<[1,16,8,8],f32>, !torch.float -> !torch.vtensor<[1,16,8,8],f32>
    %262 = torch.vtensor.literal(dense<0.000000e+00> : tensor<1x16x8x8xf32>) : !torch.vtensor<[1,16,8,8],f32>
    %float0.000000e00_106 = torch.constant.float 0.000000e+00
    %263 = torch.aten.add.Tensor %261, %262, %float0.000000e00_106 : !torch.vtensor<[1,16,8,8],f32>, !torch.vtensor<[1,16,8,8],f32>, !torch.float -> !torch.vtensor<[1,16,8,8],f32>
    %264 = torch.vtensor.literal(dense<0.000000e+00> : tensor<1x16x8x8xf32>) : !torch.vtensor<[1,16,8,8],f32>
    %float0.000000e00_107 = torch.constant.float 0.000000e+00
    %265 = torch.aten.add.Tensor %263, %264, %float0.000000e00_107 : !torch.vtensor<[1,16,8,8],f32>, !torch.vtensor<[1,16,8,8],f32>, !torch.float -> !torch.vtensor<[1,16,8,8],f32>
    %266 = torch.vtensor.literal(dense_resource<__elided__> : tensor<16x16x3x3xf32>) : !torch.vtensor<[16,16,3,3],f32>
    %267 = torch.vtensor.literal(dense<0.000000e+00> : tensor<16xf32>) : !torch.vtensor<[16],f32>
    %int1_108 = torch.constant.int 1
    %int1_109 = torch.constant.int 1
    %268 = torch.prim.ListConstruct %int1_108, %int1_108 : (!torch.int, !torch.int) -> !torch.list<int>
    %269 = torch.prim.ListConstruct %int1_109, %int1_109 : (!torch.int, !torch.int) -> !torch.list<int>
    %270 = torch.aten.convolution %265, %266, %267, %257, %268, %269, %false_104, %258, %int1_103 : !torch.vtensor<[1,16,8,8],f32>, !torch.vtensor<[16,16,3,3],f32>, !torch.vtensor<[16],f32>, !torch.list<int>, !torch.list<int>, !torch.list<int>, !torch.bool, !torch.list<int>, !torch.int -> !torch.vtensor<[1,16,8,8],f32>
    %271 = torch.aten.relu %270 : !torch.vtensor<[1,16,8,8],f32> -> !torch.vtensor<[1,16,8,8],f32>
    %272 = torch.vtensor.literal(dense<0.000000e+00> : tensor<1x16x8x8xf32>) : !torch.vtensor<[1,16,8,8],f32>
    %float0.000000e00_110 = torch.constant.float 0.000000e+00
    %273 = torch.aten.add.Tensor %271, %272, %float0.000000e00_110 : !torch.vtensor<[1,16,8,8],f32>, !torch.vtensor<[1,16,8,8],f32>, !torch.float -> !torch.vtensor<[1,16,8,8],f32>
    %274 = torch.vtensor.literal(dense<0.000000e+00> : tensor<1x16x8x8xf32>) : !torch.vtensor<[1,16,8,8],f32>
    %float0.000000e00_111 = torch.constant.float 0.000000e+00
    %275 = torch.aten.add.Tensor %273, %274, %float0.000000e00_111 : !torch.vtensor<[1,16,8,8],f32>, !torch.vtensor<[1,16,8,8],f32>, !torch.float -> !torch.vtensor<[1,16,8,8],f32>
    %276 = torch.vtensor.literal(dense<0.000000e+00> : tensor<1x16x8x8xf32>) : !torch.vtensor<[1,16,8,8],f32>
    %float0.000000e00_112 = torch.constant.float 0.000000e+00
    %277 = torch.aten.add.Tensor %275, %276, %float0.000000e00_112 : !torch.vtensor<[1,16,8,8],f32>, !torch.vtensor<[1,16,8,8],f32>, !torch.float -> !torch.vtensor<[1,16,8,8],f32>
    %278 = torch.vtensor.literal(dense<0.000000e+00> : tensor<1x16x8x8xf32>) : !torch.vtensor<[1,16,8,8],f32>
    %float0.000000e00_113 = torch.constant.float 0.000000e+00
    %279 = torch.aten.add.Tensor %277, %278, %float0.000000e00_113 : !torch.vtensor<[1,16,8,8],f32>, !torch.vtensor<[1,16,8,8],f32>, !torch.float -> !torch.vtensor<[1,16,8,8],f32>
    %280 = torch.vtensor.literal(dense<0.000000e+00> : tensor<1x16x8x8xf32>) : !torch.vtensor<[1,16,8,8],f32>
    %float0.000000e00_114 = torch.constant.float 0.000000e+00
    %281 = torch.aten.add.Tensor %279, %280, %float0.000000e00_114 : !torch.vtensor<[1,16,8,8],f32>, !torch.vtensor<[1,16,8,8],f32>, !torch.float -> !torch.vtensor<[1,16,8,8],f32>
    %int6_115 = torch.constant.int 6
    %int3_116 = torch.constant.int 3
    %282 = torch.prim.ListConstruct %int6_115, %int6_115 : (!torch.int, !torch.int) -> !torch.list<int>
    %283 = torch.prim.ListConstruct %int3_116, %int3_116 : (!torch.int, !torch.int) -> !torch.list<int>
    %284 = torch.vtensor.literal(dense_resource<__elided__> : tensor<13x16x5x5xf32>) : !torch.vtensor<[13,16,5,5],f32>
    %285 = torch.vtensor.literal(dense<0.000000e+00> : tensor<13xf32>) : !torch.vtensor<[13],f32>
    %286 = torch.aten.convolution %281, %284, %285, %255, %282, %283, %false_101, %256, %int1_100 : !torch.vtensor<[1,16,8,8],f32>, !torch.vtensor<[13,16,5,5],f32>, !torch.vtensor<[13],f32>, !torch.list<int>, !torch.list<int>, !torch.list<int>, !torch.bool, !torch.list<int>, !torch.int -> !torch.vtensor<[1,13,8,8],f32>
    %287 = torch.vtensor.literal(dense_resource<__elided__> : tensor<2x16x5x5xf32>) : !torch.vtensor<[2,16,5,5],f32>
    %288 = torch.vtensor.literal(dense<0.000000e+00> : tensor<2xf32>) : !torch.vtensor<[2],f32>
    %289 = torch.aten.convolution %281, %287, %288, %255, %282, %283, %false_101, %256, %int1_100 : !torch.vtensor<[1,16,8,8],f32>, !torch.vtensor<[2,16,5,5],f32>, !torch.vtensor<[2],f32>, !torch.list<int>, !torch.list<int>, !torch.list<int>, !torch.bool, !torch.list<int>, !torch.int -> !torch.vtensor<[1,2,8,8],f32>
    %290 = torch.vtensor.literal(dense_resource<__elided__> : tensor<1x16x5x5xf32>) : !torch.vtensor<[1,16,5,5],f32>
    %291 = torch.vtensor.literal(dense<0.000000e+00> : tensor<1xf32>) : !torch.vtensor<[1],f32>
    %292 = torch.aten.convolution %281, %290, %291, %255, %282, %283, %false_101, %256, %int1_100 : !torch.vtensor<[1,16,8,8],f32>, !torch.vtensor<[1,16,5,5],f32>, !torch.vtensor<[1],f32>, !torch.list<int>, !torch.list<int>, !torch.list<int>, !torch.bool, !torch.list<int>, !torch.int -> !torch.vtensor<[1,1,8,8],f32>
    %293 = torch.prim.ListConstruct %286, %289, %292 : (!torch.vtensor<[1,13,8,8],f32>, !torch.vtensor<[1,2,8,8],f32>, !torch.vtensor<[1,1,8,8],f32>) -> !torch.list<vtensor>
    %int1_117 = torch.constant.int 1
    %294 = torch.aten.cat %293, %int1_117 : !torch.list<vtensor>, !torch.int -> !torch.vtensor<[1,16,8,8],f32>
    %int0_118 = torch.constant.int 0
    %int1_119 = torch.constant.int 1
    %false_120 = torch.constant.bool false
    %295 = torch.prim.ListConstruct %int1_119, %int1_119 : (!torch.int, !torch.int) -> !torch.list<int>
    %296 = torch.prim.ListConstruct  : () -> !torch.list<int>
    %297 = torch.aten.relu %294 : !torch.vtensor<[1,16,8,8],f32> -> !torch.vtensor<[1,16,8,8],f32>
    %298 = torch.vtensor.literal(dense<0.000000e+00> : tensor<1x16x8x8xf32>) : !torch.vtensor<[1,16,8,8],f32>
    %float0.000000e00_121 = torch.constant.float 0.000000e+00
    %299 = torch.aten.add.Tensor %297, %298, %float0.000000e00_121 : !torch.vtensor<[1,16,8,8],f32>, !torch.vtensor<[1,16,8,8],f32>, !torch.float -> !torch.vtensor<[1,16,8,8],f32>
    %300 = torch.vtensor.literal(dense_resource<__elided__> : tensor<16x16x7x7xf32>) : !torch.vtensor<[16,16,7,7],f32>
    %301 = torch.vtensor.literal(dense<0.000000e+00> : tensor<16xf32>) : !torch.vtensor<[16],f32>
    %int15 = torch.constant.int 15
    %int5_122 = torch.constant.int 5
    %302 = torch.prim.ListConstruct %int15, %int15 : (!torch.int, !torch.int) -> !torch.list<int>
    %303 = torch.prim.ListConstruct %int5_122, %int5_122 : (!torch.int, !torch.int) -> !torch.list<int>
    %304 = torch.aten.convolution %299, %300, %301, %295, %302, %303, %false_120, %296, %int1_119 : !torch.vtensor<[1,16,8,8],f32>, !torch.vtensor<[16,16,7,7],f32>, !torch.vtensor<[16],f32>, !torch.list<int>, !torch.list<int>, !torch.list<int>, !torch.bool, !torch.list<int>, !torch.int -> !torch.vtensor<[1,16,8,8],f32>
    %305 = torch.aten.relu %304 : !torch.vtensor<[1,16,8,8],f32> -> !torch.vtensor<[1,16,8,8],f32>
    %306 = torch.vtensor.literal(dense<0.000000e+00> : tensor<1x16x8x8xf32>) : !torch.vtensor<[1,16,8,8],f32>
    %float0.000000e00_123 = torch.constant.float 0.000000e+00
    %307 = torch.aten.add.Tensor %305, %306, %float0.000000e00_123 : !torch.vtensor<[1,16,8,8],f32>, !torch.vtensor<[1,16,8,8],f32>, !torch.float -> !torch.vtensor<[1,16,8,8],f32>
    %308 = torch.vtensor.literal(dense<0.000000e+00> : tensor<1x16x8x8xf32>) : !torch.vtensor<[1,16,8,8],f32>
    %float0.000000e00_124 = torch.constant.float 0.000000e+00
    %309 = torch.aten.add.Tensor %307, %308, %float0.000000e00_124 : !torch.vtensor<[1,16,8,8],f32>, !torch.vtensor<[1,16,8,8],f32>, !torch.float -> !torch.vtensor<[1,16,8,8],f32>
    %310 = torch.vtensor.literal(dense<0.000000e+00> : tensor<1x16x8x8xf32>) : !torch.vtensor<[1,16,8,8],f32>
    %float0.000000e00_125 = torch.constant.float 0.000000e+00
    %311 = torch.aten.add.Tensor %309, %310, %float0.000000e00_125 : !torch.vtensor<[1,16,8,8],f32>, !torch.vtensor<[1,16,8,8],f32>, !torch.float -> !torch.vtensor<[1,16,8,8],f32>
    %312 = torch.vtensor.literal(dense<0.000000e+00> : tensor<1x16x8x8xf32>) : !torch.vtensor<[1,16,8,8],f32>
    %float0.000000e00_126 = torch.constant.float 0.000000e+00
    %313 = torch.aten.add.Tensor %311, %312, %float0.000000e00_126 : !torch.vtensor<[1,16,8,8],f32>, !torch.vtensor<[1,16,8,8],f32>, !torch.float -> !torch.vtensor<[1,16,8,8],f32>
    %314 = torch.vtensor.literal(dense<0.000000e+00> : tensor<1x16x8x8xf32>) : !torch.vtensor<[1,16,8,8],f32>
    %float0.000000e00_127 = torch.constant.float 0.000000e+00
    %315 = torch.aten.add.Tensor %313, %314, %float0.000000e00_127 : !torch.vtensor<[1,16,8,8],f32>, !torch.vtensor<[1,16,8,8],f32>, !torch.float -> !torch.vtensor<[1,16,8,8],f32>
    %316 = torch.aten.max_pool2d %315, %217, %217, %10, %9, %false : !torch.vtensor<[1,16,8,8],f32>, !torch.list<int>, !torch.list<int>, !torch.list<int>, !torch.list<int>, !torch.bool -> !torch.vtensor<[1,16,4,4],f32>
    %317 = torch.prim.ListConstruct %int1, %int-1 : (!torch.int, !torch.int) -> !torch.list<int>
    %318 = torch.aten.view %316, %317 : !torch.vtensor<[1,16,4,4],f32>, !torch.list<int> -> !torch.vtensor<[1,256],f32>
    %319 = torch.aten.transpose.int %5, %int0, %int1 : !torch.vtensor<[120,256],f32>, !torch.int, !torch.int -> !torch.vtensor<[256,120],f32>
    %320 = torch.aten.mm %318, %319 : !torch.vtensor<[1,256],f32>, !torch.vtensor<[256,120],f32> -> !torch.vtensor<[1,120],f32>
    %321 = torch.aten.add.Tensor %320, %4, %float1.000000e00 : !torch.vtensor<[1,120],f32>, !torch.vtensor<[120],f32>, !torch.float -> !torch.vtensor<[1,120],f32>
    %322 = torch.aten.relu %321 : !torch.vtensor<[1,120],f32> -> !torch.vtensor<[1,120],f32>
    %323 = torch.vtensor.literal(dense<0.000000e+00> : tensor<1x120xf32>) : !torch.vtensor<[1,120],f32>
    %float0.000000e00_128 = torch.constant.float 0.000000e+00
    %324 = torch.aten.add.Tensor %322, %323, %float0.000000e00_128 : !torch.vtensor<[1,120],f32>, !torch.vtensor<[1,120],f32>, !torch.float -> !torch.vtensor<[1,120],f32>
    %int1_129 = torch.constant.int 1
    %325 = torch.vtensor.literal(dense_resource<__elided__> : tensor<120x120xf32>) : !torch.vtensor<[120,120],f32>
    %326 = torch.vtensor.literal(dense_resource<__elided__> : tensor<120xf32>) : !torch.vtensor<[120],f32>
    %327 = torch.vtensor.literal(dense_resource<__elided__> : tensor<120x120xf32>) : !torch.vtensor<[120,120],f32>
    %328 = torch.vtensor.literal(dense_resource<__elided__> : tensor<120xf32>) : !torch.vtensor<[120],f32>
    %329 = torch.aten.mm %324, %325 : !torch.vtensor<[1,120],f32>, !torch.vtensor<[120,120],f32> -> !torch.vtensor<[1,120],f32>
    %330 = torch.aten.add.Tensor %329, %326, %int1_129 : !torch.vtensor<[1,120],f32>, !torch.vtensor<[120],f32>, !torch.int -> !torch.vtensor<[1,120],f32>
    %331 = torch.aten.relu %330 : !torch.vtensor<[1,120],f32> -> !torch.vtensor<[1,120],f32>
    %332 = torch.vtensor.literal(dense<0.000000e+00> : tensor<1x120xf32>) : !torch.vtensor<[1,120],f32>
    %float0.000000e00_130 = torch.constant.float 0.000000e+00
    %333 = torch.aten.add.Tensor %331, %332, %float0.000000e00_130 : !torch.vtensor<[1,120],f32>, !torch.vtensor<[1,120],f32>, !torch.float -> !torch.vtensor<[1,120],f32>
    %334 = torch.aten.mm %333, %327 : !torch.vtensor<[1,120],f32>, !torch.vtensor<[120,120],f32> -> !torch.vtensor<[1,120],f32>
    %335 = torch.aten.add.Tensor %334, %328, %int1_129 : !torch.vtensor<[1,120],f32>, !torch.vtensor<[120],f32>, !torch.int -> !torch.vtensor<[1,120],f32>
    %336 = torch.aten.relu %335 : !torch.vtensor<[1,120],f32> -> !torch.vtensor<[1,120],f32>
    %int1_131 = torch.constant.int 1
    %337 = torch.vtensor.literal(dense_resource<__elided__> : tensor<120x120xf32>) : !torch.vtensor<[120,120],f32>
    %338 = torch.vtensor.literal(dense_resource<__elided__> : tensor<120xf32>) : !torch.vtensor<[120],f32>
    %339 = torch.vtensor.literal(dense_resource<__elided__> : tensor<120x120xf32>) : !torch.vtensor<[120,120],f32>
    %340 = torch.vtensor.literal(dense_resource<__elided__> : tensor<120xf32>) : !torch.vtensor<[120],f32>
    %341 = torch.aten.mm %336, %337 : !torch.vtensor<[1,120],f32>, !torch.vtensor<[120,120],f32> -> !torch.vtensor<[1,120],f32>
    %342 = torch.aten.add.Tensor %341, %338, %int1_131 : !torch.vtensor<[1,120],f32>, !torch.vtensor<[120],f32>, !torch.int -> !torch.vtensor<[1,120],f32>
    %343 = torch.aten.relu %342 : !torch.vtensor<[1,120],f32> -> !torch.vtensor<[1,120],f32>
    %344 = torch.aten.mm %343, %339 : !torch.vtensor<[1,120],f32>, !torch.vtensor<[120,120],f32> -> !torch.vtensor<[1,120],f32>
    %345 = torch.aten.add.Tensor %344, %340, %int1_131 : !torch.vtensor<[1,120],f32>, !torch.vtensor<[120],f32>, !torch.int -> !torch.vtensor<[1,120],f32>
    %346 = torch.aten.relu %345 : !torch.vtensor<[1,120],f32> -> !torch.vtensor<[1,120],f32>
    %347 = torch.vtensor.literal(dense<0.000000e+00> : tensor<1x120xf32>) : !torch.vtensor<[1,120],f32>
    %float0.000000e00_132 = torch.constant.float 0.000000e+00
    %348 = torch.aten.add.Tensor %346, %347, %float0.000000e00_132 : !torch.vtensor<[1,120],f32>, !torch.vtensor<[1,120],f32>, !torch.float -> !torch.vtensor<[1,120],f32>
    %349 = torch.vtensor.literal(dense<0.000000e+00> : tensor<1x120xf32>) : !torch.vtensor<[1,120],f32>
    %float0.000000e00_133 = torch.constant.float 0.000000e+00
    %350 = torch.aten.add.Tensor %348, %349, %float0.000000e00_133 : !torch.vtensor<[1,120],f32>, !torch.vtensor<[1,120],f32>, !torch.float -> !torch.vtensor<[1,120],f32>
    %351 = torch.vtensor.literal(dense<0.000000e+00> : tensor<1x120xf32>) : !torch.vtensor<[1,120],f32>
    %float0.000000e00_134 = torch.constant.float 0.000000e+00
    %352 = torch.aten.add.Tensor %350, %351, %float0.000000e00_134 : !torch.vtensor<[1,120],f32>, !torch.vtensor<[1,120],f32>, !torch.float -> !torch.vtensor<[1,120],f32>
    %353 = torch.vtensor.literal(dense<0.000000e+00> : tensor<1x120xf32>) : !torch.vtensor<[1,120],f32>
    %float0.000000e00_135 = torch.constant.float 0.000000e+00
    %354 = torch.aten.add.Tensor %352, %353, %float0.000000e00_135 : !torch.vtensor<[1,120],f32>, !torch.vtensor<[1,120],f32>, !torch.float -> !torch.vtensor<[1,120],f32>
    %355 = torch.vtensor.literal(dense<0.000000e+00> : tensor<1x120xf32>) : !torch.vtensor<[1,120],f32>
    %float0.000000e00_136 = torch.constant.float 0.000000e+00
    %356 = torch.aten.add.Tensor %354, %355, %float0.000000e00_136 : !torch.vtensor<[1,120],f32>, !torch.vtensor<[1,120],f32>, !torch.float -> !torch.vtensor<[1,120],f32>
    %357 = torch.aten.transpose.int %3, %int0, %int1 : !torch.vtensor<[84,120],f32>, !torch.int, !torch.int -> !torch.vtensor<[120,84],f32>
    %358 = torch.aten.mm %356, %357 : !torch.vtensor<[1,120],f32>, !torch.vtensor<[120,84],f32> -> !torch.vtensor<[1,84],f32>
    %359 = torch.aten.add.Tensor %358, %2, %float1.000000e00 : !torch.vtensor<[1,84],f32>, !torch.vtensor<[84],f32>, !torch.float -> !torch.vtensor<[1,84],f32>
    %360 = torch.aten.relu %359 : !torch.vtensor<[1,84],f32> -> !torch.vtensor<[1,84],f32>
    %int1_137 = torch.constant.int 1
    %361 = torch.vtensor.literal(dense_resource<__elided__> : tensor<84x84xf32>) : !torch.vtensor<[84,84],f32>
    %362 = torch.vtensor.literal(dense_resource<__elided__> : tensor<84xf32>) : !torch.vtensor<[84],f32>
    %363 = torch.vtensor.literal(dense_resource<__elided__> : tensor<84x84xf32>) : !torch.vtensor<[84,84],f32>
    %364 = torch.vtensor.literal(dense_resource<__elided__> : tensor<84xf32>) : !torch.vtensor<[84],f32>
    %365 = torch.aten.mm %360, %361 : !torch.vtensor<[1,84],f32>, !torch.vtensor<[84,84],f32> -> !torch.vtensor<[1,84],f32>
    %366 = torch.aten.add.Tensor %365, %362, %int1_137 : !torch.vtensor<[1,84],f32>, !torch.vtensor<[84],f32>, !torch.int -> !torch.vtensor<[1,84],f32>
    %367 = torch.aten.relu %366 : !torch.vtensor<[1,84],f32> -> !torch.vtensor<[1,84],f32>
    %int1_138 = torch.constant.int 1
    %368 = torch.vtensor.literal(dense_resource<__elided__> : tensor<84x84xf32>) : !torch.vtensor<[84,84],f32>
    %369 = torch.vtensor.literal(dense_resource<__elided__> : tensor<84xf32>) : !torch.vtensor<[84],f32>
    %370 = torch.vtensor.literal(dense_resource<__elided__> : tensor<84x84xf32>) : !torch.vtensor<[84,84],f32>
    %371 = torch.vtensor.literal(dense_resource<__elided__> : tensor<84xf32>) : !torch.vtensor<[84],f32>
    %372 = torch.aten.mm %367, %368 : !torch.vtensor<[1,84],f32>, !torch.vtensor<[84,84],f32> -> !torch.vtensor<[1,84],f32>
    %373 = torch.aten.add.Tensor %372, %369, %int1_138 : !torch.vtensor<[1,84],f32>, !torch.vtensor<[84],f32>, !torch.int -> !torch.vtensor<[1,84],f32>
    %374 = torch.aten.relu %373 : !torch.vtensor<[1,84],f32> -> !torch.vtensor<[1,84],f32>
    %375 = torch.aten.mm %374, %370 : !torch.vtensor<[1,84],f32>, !torch.vtensor<[84,84],f32> -> !torch.vtensor<[1,84],f32>
    %376 = torch.aten.add.Tensor %375, %371, %int1_138 : !torch.vtensor<[1,84],f32>, !torch.vtensor<[84],f32>, !torch.int -> !torch.vtensor<[1,84],f32>
    %377 = torch.aten.relu %376 : !torch.vtensor<[1,84],f32> -> !torch.vtensor<[1,84],f32>
    %int1_139 = torch.constant.int 1
    %378 = torch.vtensor.literal(dense_resource<__elided__> : tensor<84x84xf32>) : !torch.vtensor<[84,84],f32>
    %379 = torch.vtensor.literal(dense_resource<__elided__> : tensor<84xf32>) : !torch.vtensor<[84],f32>
    %380 = torch.vtensor.literal(dense_resource<__elided__> : tensor<84x84xf32>) : !torch.vtensor<[84,84],f32>
    %381 = torch.vtensor.literal(dense_resource<__elided__> : tensor<84xf32>) : !torch.vtensor<[84],f32>
    %382 = torch.aten.mm %377, %378 : !torch.vtensor<[1,84],f32>, !torch.vtensor<[84,84],f32> -> !torch.vtensor<[1,84],f32>
    %383 = torch.aten.add.Tensor %382, %379, %int1_139 : !torch.vtensor<[1,84],f32>, !torch.vtensor<[84],f32>, !torch.int -> !torch.vtensor<[1,84],f32>
    %384 = torch.aten.relu %383 : !torch.vtensor<[1,84],f32> -> !torch.vtensor<[1,84],f32>
    %385 = torch.aten.mm %384, %380 : !torch.vtensor<[1,84],f32>, !torch.vtensor<[84,84],f32> -> !torch.vtensor<[1,84],f32>
    %386 = torch.aten.add.Tensor %385, %381, %int1_139 : !torch.vtensor<[1,84],f32>, !torch.vtensor<[84],f32>, !torch.int -> !torch.vtensor<[1,84],f32>
    %387 = torch.aten.relu %386 : !torch.vtensor<[1,84],f32> -> !torch.vtensor<[1,84],f32>
    %388 = torch.aten.mm %387, %363 : !torch.vtensor<[1,84],f32>, !torch.vtensor<[84,84],f32> -> !torch.vtensor<[1,84],f32>
    %389 = torch.aten.add.Tensor %388, %364, %int1_137 : !torch.vtensor<[1,84],f32>, !torch.vtensor<[84],f32>, !torch.int -> !torch.vtensor<[1,84],f32>
    %390 = torch.aten.relu %389 : !torch.vtensor<[1,84],f32> -> !torch.vtensor<[1,84],f32>
    %int1_140 = torch.constant.int 1
    %391 = torch.vtensor.literal(dense_resource<__elided__> : tensor<84x84xf32>) : !torch.vtensor<[84,84],f32>
    %392 = torch.vtensor.literal(dense_resource<__elided__> : tensor<84xf32>) : !torch.vtensor<[84],f32>
    %393 = torch.vtensor.literal(dense_resource<__elided__> : tensor<84x84xf32>) : !torch.vtensor<[84,84],f32>
    %394 = torch.vtensor.literal(dense_resource<__elided__> : tensor<84xf32>) : !torch.vtensor<[84],f32>
    %395 = torch.aten.mm %390, %391 : !torch.vtensor<[1,84],f32>, !torch.vtensor<[84,84],f32> -> !torch.vtensor<[1,84],f32>
    %396 = torch.aten.add.Tensor %395, %392, %int1_140 : !torch.vtensor<[1,84],f32>, !torch.vtensor<[84],f32>, !torch.int -> !torch.vtensor<[1,84],f32>
    %397 = torch.aten.relu %396 : !torch.vtensor<[1,84],f32> -> !torch.vtensor<[1,84],f32>
    %int1_141 = torch.constant.int 1
    %398 = torch.vtensor.literal(dense_resource<__elided__> : tensor<84x84xf32>) : !torch.vtensor<[84,84],f32>
    %399 = torch.vtensor.literal(dense_resource<__elided__> : tensor<84xf32>) : !torch.vtensor<[84],f32>
    %400 = torch.vtensor.literal(dense_resource<__elided__> : tensor<84x84xf32>) : !torch.vtensor<[84,84],f32>
    %401 = torch.vtensor.literal(dense_resource<__elided__> : tensor<84xf32>) : !torch.vtensor<[84],f32>
    %402 = torch.aten.mm %397, %398 : !torch.vtensor<[1,84],f32>, !torch.vtensor<[84,84],f32> -> !torch.vtensor<[1,84],f32>
    %403 = torch.aten.add.Tensor %402, %399, %int1_141 : !torch.vtensor<[1,84],f32>, !torch.vtensor<[84],f32>, !torch.int -> !torch.vtensor<[1,84],f32>
    %404 = torch.aten.relu %403 : !torch.vtensor<[1,84],f32> -> !torch.vtensor<[1,84],f32>
    %405 = torch.aten.mm %404, %400 : !torch.vtensor<[1,84],f32>, !torch.vtensor<[84,84],f32> -> !torch.vtensor<[1,84],f32>
    %406 = torch.aten.add.Tensor %405, %401, %int1_141 : !torch.vtensor<[1,84],f32>, !torch.vtensor<[84],f32>, !torch.int -> !torch.vtensor<[1,84],f32>
    %407 = torch.aten.relu %406 : !torch.vtensor<[1,84],f32> -> !torch.vtensor<[1,84],f32>
    %408 = torch.aten.mm %407, %393 : !torch.vtensor<[1,84],f32>, !torch.vtensor<[84,84],f32> -> !torch.vtensor<[1,84],f32>
    %409 = torch.aten.add.Tensor %408, %394, %int1_140 : !torch.vtensor<[1,84],f32>, !torch.vtensor<[84],f32>, !torch.int -> !torch.vtensor<[1,84],f32>
    %410 = torch.aten.relu %409 : !torch.vtensor<[1,84],f32> -> !torch.vtensor<[1,84],f32>
    %int1_142 = torch.constant.int 1
    %411 = torch.vtensor.literal(dense_resource<__elided__> : tensor<84x84xf32>) : !torch.vtensor<[84,84],f32>
    %412 = torch.vtensor.literal(dense_resource<__elided__> : tensor<84xf32>) : !torch.vtensor<[84],f32>
    %413 = torch.vtensor.literal(dense_resource<__elided__> : tensor<84x84xf32>) : !torch.vtensor<[84,84],f32>
    %414 = torch.vtensor.literal(dense_resource<__elided__> : tensor<84xf32>) : !torch.vtensor<[84],f32>
    %415 = torch.aten.mm %410, %411 : !torch.vtensor<[1,84],f32>, !torch.vtensor<[84,84],f32> -> !torch.vtensor<[1,84],f32>
    %416 = torch.aten.add.Tensor %415, %412, %int1_142 : !torch.vtensor<[1,84],f32>, !torch.vtensor<[84],f32>, !torch.int -> !torch.vtensor<[1,84],f32>
    %417 = torch.aten.relu %416 : !torch.vtensor<[1,84],f32> -> !torch.vtensor<[1,84],f32>
    %int1_143 = torch.constant.int 1
    %418 = torch.vtensor.literal(dense_resource<__elided__> : tensor<84x84xf32>) : !torch.vtensor<[84,84],f32>
    %419 = torch.vtensor.literal(dense_resource<__elided__> : tensor<84xf32>) : !torch.vtensor<[84],f32>
    %420 = torch.vtensor.literal(dense_resource<__elided__> : tensor<84x84xf32>) : !torch.vtensor<[84,84],f32>
    %421 = torch.vtensor.literal(dense_resource<__elided__> : tensor<84xf32>) : !torch.vtensor<[84],f32>
    %422 = torch.aten.mm %417, %418 : !torch.vtensor<[1,84],f32>, !torch.vtensor<[84,84],f32> -> !torch.vtensor<[1,84],f32>
    %423 = torch.aten.add.Tensor %422, %419, %int1_143 : !torch.vtensor<[1,84],f32>, !torch.vtensor<[84],f32>, !torch.int -> !torch.vtensor<[1,84],f32>
    %424 = torch.aten.relu %423 : !torch.vtensor<[1,84],f32> -> !torch.vtensor<[1,84],f32>
    %425 = torch.aten.mm %424, %420 : !torch.vtensor<[1,84],f32>, !torch.vtensor<[84,84],f32> -> !torch.vtensor<[1,84],f32>
    %426 = torch.aten.add.Tensor %425, %421, %int1_143 : !torch.vtensor<[1,84],f32>, !torch.vtensor<[84],f32>, !torch.int -> !torch.vtensor<[1,84],f32>
    %427 = torch.aten.relu %426 : !torch.vtensor<[1,84],f32> -> !torch.vtensor<[1,84],f32>
    %428 = torch.aten.mm %427, %413 : !torch.vtensor<[1,84],f32>, !torch.vtensor<[84,84],f32> -> !torch.vtensor<[1,84],f32>
    %429 = torch.aten.add.Tensor %428, %414, %int1_142 : !torch.vtensor<[1,84],f32>, !torch.vtensor<[84],f32>, !torch.int -> !torch.vtensor<[1,84],f32>
    %430 = torch.aten.relu %429 : !torch.vtensor<[1,84],f32> -> !torch.vtensor<[1,84],f32>
    %int1_144 = torch.constant.int 1
    %431 = torch.vtensor.literal(dense_resource<__elided__> : tensor<84x84xf32>) : !torch.vtensor<[84,84],f32>
    %432 = torch.vtensor.literal(dense_resource<__elided__> : tensor<84xf32>) : !torch.vtensor<[84],f32>
    %433 = torch.vtensor.literal(dense_resource<__elided__> : tensor<84x84xf32>) : !torch.vtensor<[84,84],f32>
    %434 = torch.vtensor.literal(dense_resource<__elided__> : tensor<84xf32>) : !torch.vtensor<[84],f32>
    %435 = torch.aten.mm %430, %431 : !torch.vtensor<[1,84],f32>, !torch.vtensor<[84,84],f32> -> !torch.vtensor<[1,84],f32>
    %436 = torch.aten.add.Tensor %435, %432, %int1_144 : !torch.vtensor<[1,84],f32>, !torch.vtensor<[84],f32>, !torch.int -> !torch.vtensor<[1,84],f32>
    %437 = torch.aten.relu %436 : !torch.vtensor<[1,84],f32> -> !torch.vtensor<[1,84],f32>
    %int1_145 = torch.constant.int 1
    %438 = torch.vtensor.literal(dense_resource<__elided__> : tensor<84x84xf32>) : !torch.vtensor<[84,84],f32>
    %439 = torch.vtensor.literal(dense_resource<__elided__> : tensor<84xf32>) : !torch.vtensor<[84],f32>
    %440 = torch.vtensor.literal(dense_resource<__elided__> : tensor<84x84xf32>) : !torch.vtensor<[84,84],f32>
    %441 = torch.vtensor.literal(dense_resource<__elided__> : tensor<84xf32>) : !torch.vtensor<[84],f32>
    %442 = torch.aten.mm %437, %438 : !torch.vtensor<[1,84],f32>, !torch.vtensor<[84,84],f32> -> !torch.vtensor<[1,84],f32>
    %443 = torch.aten.add.Tensor %442, %439, %int1_145 : !torch.vtensor<[1,84],f32>, !torch.vtensor<[84],f32>, !torch.int -> !torch.vtensor<[1,84],f32>
    %444 = torch.aten.relu %443 : !torch.vtensor<[1,84],f32> -> !torch.vtensor<[1,84],f32>
    %445 = torch.aten.mm %444, %440 : !torch.vtensor<[1,84],f32>, !torch.vtensor<[84,84],f32> -> !torch.vtensor<[1,84],f32>
    %446 = torch.aten.add.Tensor %445, %441, %int1_145 : !torch.vtensor<[1,84],f32>, !torch.vtensor<[84],f32>, !torch.int -> !torch.vtensor<[1,84],f32>
    %447 = torch.aten.relu %446 : !torch.vtensor<[1,84],f32> -> !torch.vtensor<[1,84],f32>
    %448 = torch.aten.mm %447, %433 : !torch.vtensor<[1,84],f32>, !torch.vtensor<[84,84],f32> -> !torch.vtensor<[1,84],f32>
    %449 = torch.aten.add.Tensor %448, %434, %int1_144 : !torch.vtensor<[1,84],f32>, !torch.vtensor<[84],f32>, !torch.int -> !torch.vtensor<[1,84],f32>
    %450 = torch.aten.relu %449 : !torch.vtensor<[1,84],f32> -> !torch.vtensor<[1,84],f32>
    %451 = torch.vtensor.literal(dense<0.000000e+00> : tensor<1x84xf32>) : !torch.vtensor<[1,84],f32>
    %float0.000000e00_146 = torch.constant.float 0.000000e+00
    %452 = torch.aten.add.Tensor %450, %451, %float0.000000e00_146 : !torch.vtensor<[1,84],f32>, !torch.vtensor<[1,84],f32>, !torch.float -> !torch.vtensor<[1,84],f32>
    %453 = torch.vtensor.literal(dense<0.000000e+00> : tensor<1x84xf32>) : !torch.vtensor<[1,84],f32>
    %float0.000000e00_147 = torch.constant.float 0.000000e+00
    %454 = torch.aten.add.Tensor %452, %453, %float0.000000e00_147 : !torch.vtensor<[1,84],f32>, !torch.vtensor<[1,84],f32>, !torch.float -> !torch.vtensor<[1,84],f32>
    %455 = torch.vtensor.literal(dense<0.000000e+00> : tensor<1x84xf32>) : !torch.vtensor<[1,84],f32>
    %float0.000000e00_148 = torch.constant.float 0.000000e+00
    %456 = torch.aten.add.Tensor %454, %455, %float0.000000e00_148 : !torch.vtensor<[1,84],f32>, !torch.vtensor<[1,84],f32>, !torch.float -> !torch.vtensor<[1,84],f32>
    %457 = torch.vtensor.literal(dense<0.000000e+00> : tensor<1x84xf32>) : !torch.vtensor<[1,84],f32>
    %float0.000000e00_149 = torch.constant.float 0.000000e+00
    %458 = torch.aten.add.Tensor %456, %457, %float0.000000e00_149 : !torch.vtensor<[1,84],f32>, !torch.vtensor<[1,84],f32>, !torch.float -> !torch.vtensor<[1,84],f32>
    %459 = torch.vtensor.literal(dense<0.000000e+00> : tensor<1x84xf32>) : !torch.vtensor<[1,84],f32>
    %float0.000000e00_150 = torch.constant.float 0.000000e+00
    %460 = torch.aten.add.Tensor %458, %459, %float0.000000e00_150 : !torch.vtensor<[1,84],f32>, !torch.vtensor<[1,84],f32>, !torch.float -> !torch.vtensor<[1,84],f32>
    %461 = torch.aten.transpose.int %1, %int0, %int1 : !torch.vtensor<[10,84],f32>, !torch.int, !torch.int -> !torch.vtensor<[84,10],f32>
    %462 = torch.aten.mm %460, %461 : !torch.vtensor<[1,84],f32>, !torch.vtensor<[84,10],f32> -> !torch.vtensor<[1,10],f32>
    %463 = torch.aten.add.Tensor %462, %0, %float1.000000e00 : !torch.vtensor<[1,10],f32>, !torch.vtensor<[10],f32>, !torch.float -> !torch.vtensor<[1,10],f32>
    return %463 : !torch.vtensor<[1,10],f32>
  }
}

1
1
1
1
1
1
1
1
1
1
1
1 1 5 5 25
1 1 5 5 25
1 6 1 1 6
13 16 1 1 208
1 1 5 5 25
1 1 5 5 25
2 1 5 5 50
1 6 1 1 6
after DeObfuscations
module attributes {torch.debug_module_name = "LeNet5"} {
  func.func @forward(%arg0: !torch.vtensor<[1,1,28,28],f32>) -> !torch.vtensor<[1,10],f32> {
    %int0 = torch.constant.int 0
    %int1 = torch.constant.int 1
    %float1.000000e00 = torch.constant.float 1.000000e+00
    %int-1 = torch.constant.int -1
    %false = torch.constant.bool false
    %0 = torch.vtensor.literal(dense<[0.0651603192, -0.0661661476, 0.0724986196, -0.0981579124, 0.0247178376, -0.0197601262, 0.0809485614, -0.0991860181, 0.0791024938, 0.0613553897]> : tensor<10xf32>) : !torch.vtensor<[10],f32>
    %1 = torch.vtensor.literal(dense_resource<__elided__> : tensor<10x84xf32>) : !torch.vtensor<[10,84],f32>
    %2 = torch.vtensor.literal(dense_resource<__elided__> : tensor<84xf32>) : !torch.vtensor<[84],f32>
    %3 = torch.vtensor.literal(dense_resource<__elided__> : tensor<84x120xf32>) : !torch.vtensor<[84,120],f32>
    %4 = torch.vtensor.literal(dense_resource<__elided__> : tensor<120xf32>) : !torch.vtensor<[120],f32>
    %5 = torch.vtensor.literal(dense_resource<__elided__> : tensor<120x256xf32>) : !torch.vtensor<[120,256],f32>
    %6 = torch.vtensor.literal(dense_resource<__elided__> : tensor<16xf32>) : !torch.vtensor<[16],f32>
    %7 = torch.vtensor.literal(dense_resource<__elided__> : tensor<16x6x5x5xf32>) : !torch.vtensor<[16,6,5,5],f32>
    %int2 = torch.constant.int 2
    %8 = torch.prim.ListConstruct %int1, %int1 : (!torch.int, !torch.int) -> !torch.list<int>
    %9 = torch.prim.ListConstruct %int0, %int0 : (!torch.int, !torch.int) -> !torch.list<int>
    %10 = torch.prim.ListConstruct  : () -> !torch.list<int>
    %11 = torch.vtensor.literal(dense<[-0.164500147, -0.120521381]> : tensor<2xf32>) : !torch.vtensor<[2],f32>
    %int0_0 = torch.constant.int 0
    %int0_1 = torch.constant.int 0
    %12 = torch.prim.ListConstruct %int0_0, %int0_1 : (!torch.int, !torch.int) -> !torch.list<int>
    %13 = torch.vtensor.literal(dense_resource<__elided__> : tensor<2x1x5x5xf32>) : !torch.vtensor<[2,1,5,5],f32>
    %14 = torch.aten.convolution %arg0, %13, %11, %8, %12, %8, %false, %10, %int1 : !torch.vtensor<[1,1,28,28],f32>, !torch.vtensor<[2,1,5,5],f32>, !torch.vtensor<[2],f32>, !torch.list<int>, !torch.list<int>, !torch.list<int>, !torch.bool, !torch.list<int>, !torch.int -> !torch.vtensor<[1,2,24,24],f32>
    %15 = torch.vtensor.literal(dense<0.109060742> : tensor<1xf32>) : !torch.vtensor<[1],f32>
    %int0_2 = torch.constant.int 0
    %int0_3 = torch.constant.int 0
    %16 = torch.prim.ListConstruct %int0_2, %int0_3 : (!torch.int, !torch.int) -> !torch.list<int>
    %17 = torch.vtensor.literal(dense_resource<__elided__> : tensor<1x1x5x5xf32>) : !torch.vtensor<[1,1,5,5],f32>
    %18 = torch.aten.convolution %arg0, %17, %15, %8, %16, %8, %false, %10, %int1 : !torch.vtensor<[1,1,28,28],f32>, !torch.vtensor<[1,1,5,5],f32>, !torch.vtensor<[1],f32>, !torch.list<int>, !torch.list<int>, !torch.list<int>, !torch.bool, !torch.list<int>, !torch.int -> !torch.vtensor<[1,1,24,24],f32>
    %19 = torch.vtensor.literal(dense<0.159952626> : tensor<1xf32>) : !torch.vtensor<[1],f32>
    %int0_4 = torch.constant.int 0
    %int0_5 = torch.constant.int 0
    %20 = torch.prim.ListConstruct %int0_4, %int0_5 : (!torch.int, !torch.int) -> !torch.list<int>
    %21 = torch.vtensor.literal(dense_resource<__elided__> : tensor<1x1x5x5xf32>) : !torch.vtensor<[1,1,5,5],f32>
    %22 = torch.aten.convolution %arg0, %21, %19, %8, %20, %8, %false, %10, %int1 : !torch.vtensor<[1,1,28,28],f32>, !torch.vtensor<[1,1,5,5],f32>, !torch.vtensor<[1],f32>, !torch.list<int>, !torch.list<int>, !torch.list<int>, !torch.bool, !torch.list<int>, !torch.int -> !torch.vtensor<[1,1,24,24],f32>
    %23 = torch.prim.ListConstruct %14, %18, %22 : (!torch.vtensor<[1,2,24,24],f32>, !torch.vtensor<[1,1,24,24],f32>, !torch.vtensor<[1,1,24,24],f32>) -> !torch.list<vtensor>
    %int1_6 = torch.constant.int 1
    %24 = torch.aten.cat %23, %int1_6 : !torch.list<vtensor>, !torch.int -> !torch.vtensor<[1,4,24,24],f32>
    %25 = torch.vtensor.literal(dense<0.164114043> : tensor<1xf32>) : !torch.vtensor<[1],f32>
    %int0_7 = torch.constant.int 0
    %int0_8 = torch.constant.int 0
    %26 = torch.prim.ListConstruct %int0_7, %int0_8 : (!torch.int, !torch.int) -> !torch.list<int>
    %27 = torch.vtensor.literal(dense_resource<__elided__> : tensor<1x1x5x5xf32>) : !torch.vtensor<[1,1,5,5],f32>
    %28 = torch.aten.convolution %arg0, %27, %25, %8, %26, %8, %false, %10, %int1 : !torch.vtensor<[1,1,28,28],f32>, !torch.vtensor<[1,1,5,5],f32>, !torch.vtensor<[1],f32>, !torch.list<int>, !torch.list<int>, !torch.list<int>, !torch.bool, !torch.list<int>, !torch.int -> !torch.vtensor<[1,1,24,24],f32>
    %29 = torch.vtensor.literal(dense<0.114845656> : tensor<1xf32>) : !torch.vtensor<[1],f32>
    %int0_9 = torch.constant.int 0
    %int0_10 = torch.constant.int 0
    %30 = torch.prim.ListConstruct %int0_9, %int0_10 : (!torch.int, !torch.int) -> !torch.list<int>
    %31 = torch.vtensor.literal(dense_resource<__elided__> : tensor<1x1x5x5xf32>) : !torch.vtensor<[1,1,5,5],f32>
    %32 = torch.aten.convolution %arg0, %31, %29, %8, %30, %8, %false, %10, %int1 : !torch.vtensor<[1,1,28,28],f32>, !torch.vtensor<[1,1,5,5],f32>, !torch.vtensor<[1],f32>, !torch.list<int>, !torch.list<int>, !torch.list<int>, !torch.bool, !torch.list<int>, !torch.int -> !torch.vtensor<[1,1,24,24],f32>
    %33 = torch.prim.ListConstruct %24, %28, %32 : (!torch.vtensor<[1,4,24,24],f32>, !torch.vtensor<[1,1,24,24],f32>, !torch.vtensor<[1,1,24,24],f32>) -> !torch.list<vtensor>
    %int1_11 = torch.constant.int 1
    %34 = torch.aten.cat %33, %int1_11 : !torch.list<vtensor>, !torch.int -> !torch.vtensor<[1,6,24,24],f32>
    %35 = torch.aten.relu %34 : !torch.vtensor<[1,6,24,24],f32> -> !torch.vtensor<[1,6,24,24],f32>
    %36 = torch.vtensor.literal(dense<0.000000e+00> : tensor<1x6x24x24xf32>) : !torch.vtensor<[1,6,24,24],f32>
    %float0.000000e00 = torch.constant.float 0.000000e+00
    %37 = torch.aten.add.Tensor %35, %36, %float0.000000e00 : !torch.vtensor<[1,6,24,24],f32>, !torch.vtensor<[1,6,24,24],f32>, !torch.float -> !torch.vtensor<[1,6,24,24],f32>
    %38 = torch.vtensor.literal(dense<0.000000e+00> : tensor<1x6x24x24xf32>) : !torch.vtensor<[1,6,24,24],f32>
    %float0.000000e00_12 = torch.constant.float 0.000000e+00
    %39 = torch.aten.add.Tensor %37, %38, %float0.000000e00_12 : !torch.vtensor<[1,6,24,24],f32>, !torch.vtensor<[1,6,24,24],f32>, !torch.float -> !torch.vtensor<[1,6,24,24],f32>
    %40 = torch.vtensor.literal(dense<0.000000e+00> : tensor<1x6x24x24xf32>) : !torch.vtensor<[1,6,24,24],f32>
    %float0.000000e00_13 = torch.constant.float 0.000000e+00
    %41 = torch.aten.add.Tensor %39, %40, %float0.000000e00_13 : !torch.vtensor<[1,6,24,24],f32>, !torch.vtensor<[1,6,24,24],f32>, !torch.float -> !torch.vtensor<[1,6,24,24],f32>
    %42 = torch.vtensor.literal(dense<0.000000e+00> : tensor<1x6x24x24xf32>) : !torch.vtensor<[1,6,24,24],f32>
    %float0.000000e00_14 = torch.constant.float 0.000000e+00
    %43 = torch.aten.add.Tensor %41, %42, %float0.000000e00_14 : !torch.vtensor<[1,6,24,24],f32>, !torch.vtensor<[1,6,24,24],f32>, !torch.float -> !torch.vtensor<[1,6,24,24],f32>
    %44 = torch.vtensor.literal(dense<0.000000e+00> : tensor<1x6x24x24xf32>) : !torch.vtensor<[1,6,24,24],f32>
    %float0.000000e00_15 = torch.constant.float 0.000000e+00
    %45 = torch.aten.add.Tensor %43, %44, %float0.000000e00_15 : !torch.vtensor<[1,6,24,24],f32>, !torch.vtensor<[1,6,24,24],f32>, !torch.float -> !torch.vtensor<[1,6,24,24],f32>
    %46 = torch.vtensor.literal(dense<0.000000e+00> : tensor<1x6x24x24xf32>) : !torch.vtensor<[1,6,24,24],f32>
    %float0.000000e00_16 = torch.constant.float 0.000000e+00
    %47 = torch.aten.add.Tensor %45, %46, %float0.000000e00_16 : !torch.vtensor<[1,6,24,24],f32>, !torch.vtensor<[1,6,24,24],f32>, !torch.float -> !torch.vtensor<[1,6,24,24],f32>
    %48 = torch.vtensor.literal(dense<0.000000e+00> : tensor<1x6x24x24xf32>) : !torch.vtensor<[1,6,24,24],f32>
    %float0.000000e00_17 = torch.constant.float 0.000000e+00
    %49 = torch.aten.add.Tensor %47, %48, %float0.000000e00_17 : !torch.vtensor<[1,6,24,24],f32>, !torch.vtensor<[1,6,24,24],f32>, !torch.float -> !torch.vtensor<[1,6,24,24],f32>
    %50 = torch.vtensor.literal(dense<0.000000e+00> : tensor<1x6x24x24xf32>) : !torch.vtensor<[1,6,24,24],f32>
    %float0.000000e00_18 = torch.constant.float 0.000000e+00
    %51 = torch.aten.add.Tensor %49, %50, %float0.000000e00_18 : !torch.vtensor<[1,6,24,24],f32>, !torch.vtensor<[1,6,24,24],f32>, !torch.float -> !torch.vtensor<[1,6,24,24],f32>
    %52 = torch.vtensor.literal(dense<0.000000e+00> : tensor<1x6x24x24xf32>) : !torch.vtensor<[1,6,24,24],f32>
    %float0.000000e00_19 = torch.constant.float 0.000000e+00
    %53 = torch.aten.add.Tensor %51, %52, %float0.000000e00_19 : !torch.vtensor<[1,6,24,24],f32>, !torch.vtensor<[1,6,24,24],f32>, !torch.float -> !torch.vtensor<[1,6,24,24],f32>
    %54 = torch.vtensor.literal(dense<0.000000e+00> : tensor<1x6x24x24xf32>) : !torch.vtensor<[1,6,24,24],f32>
    %float0.000000e00_20 = torch.constant.float 0.000000e+00
    %55 = torch.aten.add.Tensor %53, %54, %float0.000000e00_20 : !torch.vtensor<[1,6,24,24],f32>, !torch.vtensor<[1,6,24,24],f32>, !torch.float -> !torch.vtensor<[1,6,24,24],f32>
    %56 = torch.vtensor.literal(dense<0.000000e+00> : tensor<1x6x24x24xf32>) : !torch.vtensor<[1,6,24,24],f32>
    %float0.000000e00_21 = torch.constant.float 0.000000e+00
    %57 = torch.aten.add.Tensor %55, %56, %float0.000000e00_21 : !torch.vtensor<[1,6,24,24],f32>, !torch.vtensor<[1,6,24,24],f32>, !torch.float -> !torch.vtensor<[1,6,24,24],f32>
    %58 = torch.vtensor.literal(dense<0.000000e+00> : tensor<1x6x24x24xf32>) : !torch.vtensor<[1,6,24,24],f32>
    %float0.000000e00_22 = torch.constant.float 0.000000e+00
    %59 = torch.aten.add.Tensor %57, %58, %float0.000000e00_22 : !torch.vtensor<[1,6,24,24],f32>, !torch.vtensor<[1,6,24,24],f32>, !torch.float -> !torch.vtensor<[1,6,24,24],f32>
    %60 = torch.vtensor.literal(dense<0.000000e+00> : tensor<1x6x24x24xf32>) : !torch.vtensor<[1,6,24,24],f32>
    %float0.000000e00_23 = torch.constant.float 0.000000e+00
    %61 = torch.aten.add.Tensor %59, %60, %float0.000000e00_23 : !torch.vtensor<[1,6,24,24],f32>, !torch.vtensor<[1,6,24,24],f32>, !torch.float -> !torch.vtensor<[1,6,24,24],f32>
    %62 = torch.vtensor.literal(dense<0.000000e+00> : tensor<1x6x24x24xf32>) : !torch.vtensor<[1,6,24,24],f32>
    %float0.000000e00_24 = torch.constant.float 0.000000e+00
    %63 = torch.aten.add.Tensor %61, %62, %float0.000000e00_24 : !torch.vtensor<[1,6,24,24],f32>, !torch.vtensor<[1,6,24,24],f32>, !torch.float -> !torch.vtensor<[1,6,24,24],f32>
    %64 = torch.vtensor.literal(dense<0.000000e+00> : tensor<1x6x24x24xf32>) : !torch.vtensor<[1,6,24,24],f32>
    %float0.000000e00_25 = torch.constant.float 0.000000e+00
    %65 = torch.aten.add.Tensor %63, %64, %float0.000000e00_25 : !torch.vtensor<[1,6,24,24],f32>, !torch.vtensor<[1,6,24,24],f32>, !torch.float -> !torch.vtensor<[1,6,24,24],f32>
    %66 = torch.vtensor.literal(dense<0.000000e+00> : tensor<1x6x24x24xf32>) : !torch.vtensor<[1,6,24,24],f32>
    %float0.000000e00_26 = torch.constant.float 0.000000e+00
    %67 = torch.aten.add.Tensor %65, %66, %float0.000000e00_26 : !torch.vtensor<[1,6,24,24],f32>, !torch.vtensor<[1,6,24,24],f32>, !torch.float -> !torch.vtensor<[1,6,24,24],f32>
    %68 = torch.vtensor.literal(dense<0.000000e+00> : tensor<1x6x24x24xf32>) : !torch.vtensor<[1,6,24,24],f32>
    %float0.000000e00_27 = torch.constant.float 0.000000e+00
    %69 = torch.aten.add.Tensor %67, %68, %float0.000000e00_27 : !torch.vtensor<[1,6,24,24],f32>, !torch.vtensor<[1,6,24,24],f32>, !torch.float -> !torch.vtensor<[1,6,24,24],f32>
    %70 = torch.vtensor.literal(dense<0.000000e+00> : tensor<1x6x24x24xf32>) : !torch.vtensor<[1,6,24,24],f32>
    %float0.000000e00_28 = torch.constant.float 0.000000e+00
    %71 = torch.aten.add.Tensor %69, %70, %float0.000000e00_28 : !torch.vtensor<[1,6,24,24],f32>, !torch.vtensor<[1,6,24,24],f32>, !torch.float -> !torch.vtensor<[1,6,24,24],f32>
    %72 = torch.vtensor.literal(dense<0.000000e+00> : tensor<1x6x24x24xf32>) : !torch.vtensor<[1,6,24,24],f32>
    %float0.000000e00_29 = torch.constant.float 0.000000e+00
    %73 = torch.aten.add.Tensor %71, %72, %float0.000000e00_29 : !torch.vtensor<[1,6,24,24],f32>, !torch.vtensor<[1,6,24,24],f32>, !torch.float -> !torch.vtensor<[1,6,24,24],f32>
    %int1_30 = torch.constant.int 1
    %false_31 = torch.constant.bool false
    %74 = torch.prim.ListConstruct %int1_30, %int1_30 : (!torch.int, !torch.int) -> !torch.list<int>
    %75 = torch.prim.ListConstruct  : () -> !torch.list<int>
    %int1_32 = torch.constant.int 1
    %false_33 = torch.constant.bool false
    %76 = torch.prim.ListConstruct %int1_32, %int1_32 : (!torch.int, !torch.int) -> !torch.list<int>
    %77 = torch.prim.ListConstruct  : () -> !torch.list<int>
    %78 = torch.vtensor.literal(dense<0.000000e+00> : tensor<1x6x24x24xf32>) : !torch.vtensor<[1,6,24,24],f32>
    %float0.000000e00_34 = torch.constant.float 0.000000e+00
    %79 = torch.aten.add.Tensor %73, %78, %float0.000000e00_34 : !torch.vtensor<[1,6,24,24],f32>, !torch.vtensor<[1,6,24,24],f32>, !torch.float -> !torch.vtensor<[1,6,24,24],f32>
    %80 = torch.vtensor.literal(dense<0.000000e+00> : tensor<1x6x24x24xf32>) : !torch.vtensor<[1,6,24,24],f32>
    %float0.000000e00_35 = torch.constant.float 0.000000e+00
    %81 = torch.aten.add.Tensor %79, %80, %float0.000000e00_35 : !torch.vtensor<[1,6,24,24],f32>, !torch.vtensor<[1,6,24,24],f32>, !torch.float -> !torch.vtensor<[1,6,24,24],f32>
    %82 = torch.vtensor.literal(dense<0.000000e+00> : tensor<1x6x24x24xf32>) : !torch.vtensor<[1,6,24,24],f32>
    %float0.000000e00_36 = torch.constant.float 0.000000e+00
    %83 = torch.aten.add.Tensor %81, %82, %float0.000000e00_36 : !torch.vtensor<[1,6,24,24],f32>, !torch.vtensor<[1,6,24,24],f32>, !torch.float -> !torch.vtensor<[1,6,24,24],f32>
    %int10 = torch.constant.int 10
    %int5 = torch.constant.int 5
    %84 = torch.prim.ListConstruct %int10, %int10 : (!torch.int, !torch.int) -> !torch.list<int>
    %85 = torch.prim.ListConstruct %int5, %int5 : (!torch.int, !torch.int) -> !torch.list<int>
    %86 = torch.vtensor.literal(dense<0.000000e+00> : tensor<1xf32>) : !torch.vtensor<[1],f32>
    %int8 = torch.constant.int 8
    %int8_37 = torch.constant.int 8
    %87 = torch.prim.ListConstruct %int8, %int8_37 : (!torch.int, !torch.int) -> !torch.list<int>
    %88 = torch.vtensor.literal(dense<[[[[1.000000e+00]], [[0.000000e+00]], [[0.000000e+00]], [[0.000000e+00]], [[0.000000e+00]], [[0.000000e+00]]]]> : tensor<1x6x1x1xf32>) : !torch.vtensor<[1,6,1,1],f32>
    %89 = torch.aten.convolution %83, %88, %86, %76, %87, %85, %false_33, %77, %int1_32 : !torch.vtensor<[1,6,24,24],f32>, !torch.vtensor<[1,6,1,1],f32>, !torch.vtensor<[1],f32>, !torch.list<int>, !torch.list<int>, !torch.list<int>, !torch.bool, !torch.list<int>, !torch.int -> !torch.vtensor<[1,1,24,24],f32>
    %90 = torch.vtensor.literal(dense_resource<__elided__> : tensor<3x6x5x5xf32>) : !torch.vtensor<[3,6,5,5],f32>
    %91 = torch.vtensor.literal(dense<0.000000e+00> : tensor<3xf32>) : !torch.vtensor<[3],f32>
    %92 = torch.aten.convolution %83, %90, %91, %76, %84, %85, %false_33, %77, %int1_32 : !torch.vtensor<[1,6,24,24],f32>, !torch.vtensor<[3,6,5,5],f32>, !torch.vtensor<[3],f32>, !torch.list<int>, !torch.list<int>, !torch.list<int>, !torch.bool, !torch.list<int>, !torch.int -> !torch.vtensor<[1,3,24,24],f32>
    %93 = torch.vtensor.literal(dense_resource<__elided__> : tensor<1x6x5x5xf32>) : !torch.vtensor<[1,6,5,5],f32>
    %94 = torch.vtensor.literal(dense<0.000000e+00> : tensor<1xf32>) : !torch.vtensor<[1],f32>
    %95 = torch.aten.convolution %83, %93, %94, %76, %84, %85, %false_33, %77, %int1_32 : !torch.vtensor<[1,6,24,24],f32>, !torch.vtensor<[1,6,5,5],f32>, !torch.vtensor<[1],f32>, !torch.list<int>, !torch.list<int>, !torch.list<int>, !torch.bool, !torch.list<int>, !torch.int -> !torch.vtensor<[1,1,24,24],f32>
    %96 = torch.vtensor.literal(dense_resource<__elided__> : tensor<1x6x5x5xf32>) : !torch.vtensor<[1,6,5,5],f32>
    %97 = torch.vtensor.literal(dense<0.000000e+00> : tensor<1xf32>) : !torch.vtensor<[1],f32>
    %98 = torch.aten.convolution %83, %96, %97, %76, %84, %85, %false_33, %77, %int1_32 : !torch.vtensor<[1,6,24,24],f32>, !torch.vtensor<[1,6,5,5],f32>, !torch.vtensor<[1],f32>, !torch.list<int>, !torch.list<int>, !torch.list<int>, !torch.bool, !torch.list<int>, !torch.int -> !torch.vtensor<[1,1,24,24],f32>
    %99 = torch.prim.ListConstruct %89, %92, %95, %98 : (!torch.vtensor<[1,1,24,24],f32>, !torch.vtensor<[1,3,24,24],f32>, !torch.vtensor<[1,1,24,24],f32>, !torch.vtensor<[1,1,24,24],f32>) -> !torch.list<vtensor>
    %int1_38 = torch.constant.int 1
    %100 = torch.aten.cat %99, %int1_38 : !torch.list<vtensor>, !torch.int -> !torch.vtensor<[1,6,24,24],f32>
    %101 = torch.aten.relu %100 : !torch.vtensor<[1,6,24,24],f32> -> !torch.vtensor<[1,6,24,24],f32>
    %102 = torch.vtensor.literal(dense<0.000000e+00> : tensor<1x6x24x24xf32>) : !torch.vtensor<[1,6,24,24],f32>
    %float0.000000e00_39 = torch.constant.float 0.000000e+00
    %103 = torch.aten.add.Tensor %101, %102, %float0.000000e00_39 : !torch.vtensor<[1,6,24,24],f32>, !torch.vtensor<[1,6,24,24],f32>, !torch.float -> !torch.vtensor<[1,6,24,24],f32>
    %104 = torch.vtensor.literal(dense<0.000000e+00> : tensor<1x6x24x24xf32>) : !torch.vtensor<[1,6,24,24],f32>
    %float0.000000e00_40 = torch.constant.float 0.000000e+00
    %105 = torch.aten.add.Tensor %103, %104, %float0.000000e00_40 : !torch.vtensor<[1,6,24,24],f32>, !torch.vtensor<[1,6,24,24],f32>, !torch.float -> !torch.vtensor<[1,6,24,24],f32>
    %106 = torch.vtensor.literal(dense<0.000000e+00> : tensor<1x6x24x24xf32>) : !torch.vtensor<[1,6,24,24],f32>
    %float0.000000e00_41 = torch.constant.float 0.000000e+00
    %107 = torch.aten.add.Tensor %105, %106, %float0.000000e00_41 : !torch.vtensor<[1,6,24,24],f32>, !torch.vtensor<[1,6,24,24],f32>, !torch.float -> !torch.vtensor<[1,6,24,24],f32>
    %int8_42 = torch.constant.int 8
    %int2_43 = torch.constant.int 2
    %108 = torch.prim.ListConstruct %int8_42, %int8_42 : (!torch.int, !torch.int) -> !torch.list<int>
    %109 = torch.prim.ListConstruct %int2_43, %int2_43 : (!torch.int, !torch.int) -> !torch.list<int>
    %110 = torch.vtensor.literal(dense<0.000000e+00> : tensor<1xf32>) : !torch.vtensor<[1],f32>
    %int4 = torch.constant.int 4
    %int4_44 = torch.constant.int 4
    %111 = torch.prim.ListConstruct %int4, %int4_44 : (!torch.int, !torch.int) -> !torch.list<int>
    %112 = torch.vtensor.literal(dense<[[[[1.000000e+00]], [[0.000000e+00]], [[0.000000e+00]], [[0.000000e+00]], [[0.000000e+00]], [[0.000000e+00]]]]> : tensor<1x6x1x1xf32>) : !torch.vtensor<[1,6,1,1],f32>
    %113 = torch.aten.convolution %107, %112, %110, %74, %111, %109, %false_31, %75, %int1_30 : !torch.vtensor<[1,6,24,24],f32>, !torch.vtensor<[1,6,1,1],f32>, !torch.vtensor<[1],f32>, !torch.list<int>, !torch.list<int>, !torch.list<int>, !torch.bool, !torch.list<int>, !torch.int -> !torch.vtensor<[1,1,24,24],f32>
    %114 = torch.vtensor.literal(dense_resource<__elided__> : tensor<3x6x9x9xf32>) : !torch.vtensor<[3,6,9,9],f32>
    %115 = torch.vtensor.literal(dense<0.000000e+00> : tensor<3xf32>) : !torch.vtensor<[3],f32>
    %116 = torch.aten.convolution %107, %114, %115, %74, %108, %109, %false_31, %75, %int1_30 : !torch.vtensor<[1,6,24,24],f32>, !torch.vtensor<[3,6,9,9],f32>, !torch.vtensor<[3],f32>, !torch.list<int>, !torch.list<int>, !torch.list<int>, !torch.bool, !torch.list<int>, !torch.int -> !torch.vtensor<[1,3,24,24],f32>
    %117 = torch.vtensor.literal(dense_resource<__elided__> : tensor<1x6x9x9xf32>) : !torch.vtensor<[1,6,9,9],f32>
    %118 = torch.vtensor.literal(dense<0.000000e+00> : tensor<1xf32>) : !torch.vtensor<[1],f32>
    %119 = torch.aten.convolution %107, %117, %118, %74, %108, %109, %false_31, %75, %int1_30 : !torch.vtensor<[1,6,24,24],f32>, !torch.vtensor<[1,6,9,9],f32>, !torch.vtensor<[1],f32>, !torch.list<int>, !torch.list<int>, !torch.list<int>, !torch.bool, !torch.list<int>, !torch.int -> !torch.vtensor<[1,1,24,24],f32>
    %120 = torch.vtensor.literal(dense_resource<__elided__> : tensor<1x6x9x9xf32>) : !torch.vtensor<[1,6,9,9],f32>
    %121 = torch.vtensor.literal(dense<0.000000e+00> : tensor<1xf32>) : !torch.vtensor<[1],f32>
    %122 = torch.aten.convolution %107, %120, %121, %74, %108, %109, %false_31, %75, %int1_30 : !torch.vtensor<[1,6,24,24],f32>, !torch.vtensor<[1,6,9,9],f32>, !torch.vtensor<[1],f32>, !torch.list<int>, !torch.list<int>, !torch.list<int>, !torch.bool, !torch.list<int>, !torch.int -> !torch.vtensor<[1,1,24,24],f32>
    %123 = torch.prim.ListConstruct %113, %116, %119, %122 : (!torch.vtensor<[1,1,24,24],f32>, !torch.vtensor<[1,3,24,24],f32>, !torch.vtensor<[1,1,24,24],f32>, !torch.vtensor<[1,1,24,24],f32>) -> !torch.list<vtensor>
    %int1_45 = torch.constant.int 1
    %124 = torch.aten.cat %123, %int1_45 : !torch.list<vtensor>, !torch.int -> !torch.vtensor<[1,6,24,24],f32>
    %125 = torch.aten.relu %124 : !torch.vtensor<[1,6,24,24],f32> -> !torch.vtensor<[1,6,24,24],f32>
    %126 = torch.vtensor.literal(dense<0.000000e+00> : tensor<1x6x24x24xf32>) : !torch.vtensor<[1,6,24,24],f32>
    %float0.000000e00_46 = torch.constant.float 0.000000e+00
    %127 = torch.aten.add.Tensor %125, %126, %float0.000000e00_46 : !torch.vtensor<[1,6,24,24],f32>, !torch.vtensor<[1,6,24,24],f32>, !torch.float -> !torch.vtensor<[1,6,24,24],f32>
    %128 = torch.vtensor.literal(dense<0.000000e+00> : tensor<1x6x24x24xf32>) : !torch.vtensor<[1,6,24,24],f32>
    %float0.000000e00_47 = torch.constant.float 0.000000e+00
    %129 = torch.aten.add.Tensor %127, %128, %float0.000000e00_47 : !torch.vtensor<[1,6,24,24],f32>, !torch.vtensor<[1,6,24,24],f32>, !torch.float -> !torch.vtensor<[1,6,24,24],f32>
    %130 = torch.vtensor.literal(dense<0.000000e+00> : tensor<1x6x24x24xf32>) : !torch.vtensor<[1,6,24,24],f32>
    %float0.000000e00_48 = torch.constant.float 0.000000e+00
    %131 = torch.aten.add.Tensor %129, %130, %float0.000000e00_48 : !torch.vtensor<[1,6,24,24],f32>, !torch.vtensor<[1,6,24,24],f32>, !torch.float -> !torch.vtensor<[1,6,24,24],f32>
    %132 = torch.vtensor.literal(dense<0.000000e+00> : tensor<1x6x24x24xf32>) : !torch.vtensor<[1,6,24,24],f32>
    %float0.000000e00_49 = torch.constant.float 0.000000e+00
    %133 = torch.aten.add.Tensor %131, %132, %float0.000000e00_49 : !torch.vtensor<[1,6,24,24],f32>, !torch.vtensor<[1,6,24,24],f32>, !torch.float -> !torch.vtensor<[1,6,24,24],f32>
    %134 = torch.vtensor.literal(dense<0.000000e+00> : tensor<1x6x24x24xf32>) : !torch.vtensor<[1,6,24,24],f32>
    %float0.000000e00_50 = torch.constant.float 0.000000e+00
    %135 = torch.aten.add.Tensor %133, %134, %float0.000000e00_50 : !torch.vtensor<[1,6,24,24],f32>, !torch.vtensor<[1,6,24,24],f32>, !torch.float -> !torch.vtensor<[1,6,24,24],f32>
    %136 = torch.prim.ListConstruct %int2, %int2 : (!torch.int, !torch.int) -> !torch.list<int>
    %137 = torch.aten.max_pool2d %135, %136, %136, %9, %8, %false : !torch.vtensor<[1,6,24,24],f32>, !torch.list<int>, !torch.list<int>, !torch.list<int>, !torch.list<int>, !torch.bool -> !torch.vtensor<[1,6,12,12],f32>
    %138 = torch.prim.ListConstruct  : () -> !torch.list<int>
    %139 = torch.vtensor.literal(dense<0.000000e+00> : tensor<1x6x1x1xf32>) : !torch.vtensor<[1,6,1,1],f32>
    %140 = torch.vtensor.literal(dense<0.000000e+00> : tensor<1xf32>) : !torch.vtensor<[1],f32>
    %141 = torch.vtensor.literal(dense<0.000000e+00> : tensor<1x1x1x1xf32>) : !torch.vtensor<[1,1,1,1],f32>
    %142 = torch.aten.convolution %137, %139, %140, %8, %9, %8, %false, %138, %int1 : !torch.vtensor<[1,6,12,12],f32>, !torch.vtensor<[1,6,1,1],f32>, !torch.vtensor<[1],f32>, !torch.list<int>, !torch.list<int>, !torch.list<int>, !torch.bool, !torch.list<int>, !torch.int -> !torch.vtensor<[1,1,12,12],f32>
    %143 = torch.vtensor.literal(dense<0.000000e+00> : tensor<1xf32>) : !torch.vtensor<[1],f32>
    %144 = torch.aten.convolution %137, %141, %143, %8, %9, %8, %false, %138, %int1 : !torch.vtensor<[1,6,12,12],f32>, !torch.vtensor<[1,1,1,1],f32>, !torch.vtensor<[1],f32>, !torch.list<int>, !torch.list<int>, !torch.list<int>, !torch.bool, !torch.list<int>, !torch.int -> !torch.vtensor<[1,1,12,12],f32>
    %145 = torch.vtensor.literal(dense<0.000000e+00> : tensor<1x6x1x1xf32>) : !torch.vtensor<[1,6,1,1],f32>
    %146 = torch.vtensor.literal(dense<0.000000e+00> : tensor<1xf32>) : !torch.vtensor<[1],f32>
    %147 = torch.aten.convolution %137, %145, %146, %8, %9, %8, %false, %138, %int1 : !torch.vtensor<[1,6,12,12],f32>, !torch.vtensor<[1,6,1,1],f32>, !torch.vtensor<[1],f32>, !torch.list<int>, !torch.list<int>, !torch.list<int>, !torch.bool, !torch.list<int>, !torch.int -> !torch.vtensor<[1,1,12,12],f32>
    %148 = torch.prim.ListConstruct %142, %144, %147 : (!torch.vtensor<[1,1,12,12],f32>, !torch.vtensor<[1,1,12,12],f32>, !torch.vtensor<[1,1,12,12],f32>) -> !torch.list<vtensor>
    %int1_51 = torch.constant.int 1
    %149 = torch.aten.cat %148, %int1_51 : !torch.list<vtensor>, !torch.int -> !torch.vtensor<[1,6,12,12],f32>
    %float0.000000e00_52 = torch.constant.float 0.000000e+00
    %150 = torch.aten.add.Tensor %137, %149, %float0.000000e00_52 : !torch.vtensor<[1,6,12,12],f32>, !torch.vtensor<[1,6,12,12],f32>, !torch.float -> !torch.vtensor<[1,6,12,12],f32>
    %151 = torch.aten.convolution %150, %7, %6, %8, %9, %8, %false, %138, %int1 : !torch.vtensor<[1,6,12,12],f32>, !torch.vtensor<[16,6,5,5],f32>, !torch.vtensor<[16],f32>, !torch.list<int>, !torch.list<int>, !torch.list<int>, !torch.bool, !torch.list<int>, !torch.int -> !torch.vtensor<[1,16,8,8],f32>
    %152 = torch.aten.relu %151 : !torch.vtensor<[1,16,8,8],f32> -> !torch.vtensor<[1,16,8,8],f32>
    %153 = torch.vtensor.literal(dense<0.000000e+00> : tensor<1x16x8x8xf32>) : !torch.vtensor<[1,16,8,8],f32>
    %float0.000000e00_53 = torch.constant.float 0.000000e+00
    %154 = torch.aten.add.Tensor %152, %153, %float0.000000e00_53 : !torch.vtensor<[1,16,8,8],f32>, !torch.vtensor<[1,16,8,8],f32>, !torch.float -> !torch.vtensor<[1,16,8,8],f32>
    %155 = torch.vtensor.literal(dense<0.000000e+00> : tensor<1x16x8x8xf32>) : !torch.vtensor<[1,16,8,8],f32>
    %float0.000000e00_54 = torch.constant.float 0.000000e+00
    %156 = torch.aten.add.Tensor %154, %155, %float0.000000e00_54 : !torch.vtensor<[1,16,8,8],f32>, !torch.vtensor<[1,16,8,8],f32>, !torch.float -> !torch.vtensor<[1,16,8,8],f32>
    %157 = torch.vtensor.literal(dense<0.000000e+00> : tensor<1x16x8x8xf32>) : !torch.vtensor<[1,16,8,8],f32>
    %float0.000000e00_55 = torch.constant.float 0.000000e+00
    %158 = torch.aten.add.Tensor %156, %157, %float0.000000e00_55 : !torch.vtensor<[1,16,8,8],f32>, !torch.vtensor<[1,16,8,8],f32>, !torch.float -> !torch.vtensor<[1,16,8,8],f32>
    %159 = torch.vtensor.literal(dense<0.000000e+00> : tensor<1x16x8x8xf32>) : !torch.vtensor<[1,16,8,8],f32>
    %float0.000000e00_56 = torch.constant.float 0.000000e+00
    %160 = torch.aten.add.Tensor %158, %159, %float0.000000e00_56 : !torch.vtensor<[1,16,8,8],f32>, !torch.vtensor<[1,16,8,8],f32>, !torch.float -> !torch.vtensor<[1,16,8,8],f32>
    %161 = torch.vtensor.literal(dense<0.000000e+00> : tensor<1x16x8x8xf32>) : !torch.vtensor<[1,16,8,8],f32>
    %float0.000000e00_57 = torch.constant.float 0.000000e+00
    %162 = torch.aten.add.Tensor %160, %161, %float0.000000e00_57 : !torch.vtensor<[1,16,8,8],f32>, !torch.vtensor<[1,16,8,8],f32>, !torch.float -> !torch.vtensor<[1,16,8,8],f32>
    %int1_58 = torch.constant.int 1
    %false_59 = torch.constant.bool false
    %163 = torch.prim.ListConstruct %int1_58, %int1_58 : (!torch.int, !torch.int) -> !torch.list<int>
    %164 = torch.prim.ListConstruct  : () -> !torch.list<int>
    %165 = torch.vtensor.literal(dense<0.000000e+00> : tensor<1x16x8x8xf32>) : !torch.vtensor<[1,16,8,8],f32>
    %float0.000000e00_60 = torch.constant.float 0.000000e+00
    %166 = torch.aten.add.Tensor %162, %165, %float0.000000e00_60 : !torch.vtensor<[1,16,8,8],f32>, !torch.vtensor<[1,16,8,8],f32>, !torch.float -> !torch.vtensor<[1,16,8,8],f32>
    %167 = torch.vtensor.literal(dense<0.000000e+00> : tensor<1x16x8x8xf32>) : !torch.vtensor<[1,16,8,8],f32>
    %float0.000000e00_61 = torch.constant.float 0.000000e+00
    %168 = torch.aten.add.Tensor %166, %167, %float0.000000e00_61 : !torch.vtensor<[1,16,8,8],f32>, !torch.vtensor<[1,16,8,8],f32>, !torch.float -> !torch.vtensor<[1,16,8,8],f32>
    %169 = torch.vtensor.literal(dense<0.000000e+00> : tensor<1x16x8x8xf32>) : !torch.vtensor<[1,16,8,8],f32>
    %float0.000000e00_62 = torch.constant.float 0.000000e+00
    %170 = torch.aten.add.Tensor %168, %169, %float0.000000e00_62 : !torch.vtensor<[1,16,8,8],f32>, !torch.vtensor<[1,16,8,8],f32>, !torch.float -> !torch.vtensor<[1,16,8,8],f32>
    %171 = torch.vtensor.literal(dense<0.000000e+00> : tensor<1x16x8x8xf32>) : !torch.vtensor<[1,16,8,8],f32>
    %float0.000000e00_63 = torch.constant.float 0.000000e+00
    %172 = torch.aten.add.Tensor %170, %171, %float0.000000e00_63 : !torch.vtensor<[1,16,8,8],f32>, !torch.vtensor<[1,16,8,8],f32>, !torch.float -> !torch.vtensor<[1,16,8,8],f32>
    %173 = torch.vtensor.literal(dense<0.000000e+00> : tensor<1x16x8x8xf32>) : !torch.vtensor<[1,16,8,8],f32>
    %float0.000000e00_64 = torch.constant.float 0.000000e+00
    %174 = torch.aten.add.Tensor %172, %173, %float0.000000e00_64 : !torch.vtensor<[1,16,8,8],f32>, !torch.vtensor<[1,16,8,8],f32>, !torch.float -> !torch.vtensor<[1,16,8,8],f32>
    %175 = torch.vtensor.literal(dense<0.000000e+00> : tensor<1x16x8x8xf32>) : !torch.vtensor<[1,16,8,8],f32>
    %float0.000000e00_65 = torch.constant.float 0.000000e+00
    %176 = torch.aten.add.Tensor %174, %175, %float0.000000e00_65 : !torch.vtensor<[1,16,8,8],f32>, !torch.vtensor<[1,16,8,8],f32>, !torch.float -> !torch.vtensor<[1,16,8,8],f32>
    %177 = torch.vtensor.literal(dense<0.000000e+00> : tensor<1x16x8x8xf32>) : !torch.vtensor<[1,16,8,8],f32>
    %float0.000000e00_66 = torch.constant.float 0.000000e+00
    %178 = torch.aten.add.Tensor %176, %177, %float0.000000e00_66 : !torch.vtensor<[1,16,8,8],f32>, !torch.vtensor<[1,16,8,8],f32>, !torch.float -> !torch.vtensor<[1,16,8,8],f32>
    %179 = torch.vtensor.literal(dense<0.000000e+00> : tensor<1x16x8x8xf32>) : !torch.vtensor<[1,16,8,8],f32>
    %float0.000000e00_67 = torch.constant.float 0.000000e+00
    %180 = torch.aten.add.Tensor %178, %179, %float0.000000e00_67 : !torch.vtensor<[1,16,8,8],f32>, !torch.vtensor<[1,16,8,8],f32>, !torch.float -> !torch.vtensor<[1,16,8,8],f32>
    %int6 = torch.constant.int 6
    %int3 = torch.constant.int 3
    %181 = torch.prim.ListConstruct %int6, %int6 : (!torch.int, !torch.int) -> !torch.list<int>
    %182 = torch.prim.ListConstruct %int3, %int3 : (!torch.int, !torch.int) -> !torch.list<int>
    %183 = torch.vtensor.literal(dense<0.000000e+00> : tensor<13xf32>) : !torch.vtensor<[13],f32>
    %int4_68 = torch.constant.int 4
    %int4_69 = torch.constant.int 4
    %184 = torch.prim.ListConstruct %int4_68, %int4_69 : (!torch.int, !torch.int) -> !torch.list<int>
    %185 = torch.vtensor.literal(dense_resource<__elided__> : tensor<13x16x1x1xf32>) : !torch.vtensor<[13,16,1,1],f32>
    %186 = torch.aten.convolution %180, %185, %183, %163, %184, %182, %false_59, %164, %int1_58 : !torch.vtensor<[1,16,8,8],f32>, !torch.vtensor<[13,16,1,1],f32>, !torch.vtensor<[13],f32>, !torch.list<int>, !torch.list<int>, !torch.list<int>, !torch.bool, !torch.list<int>, !torch.int -> !torch.vtensor<[1,13,8,8],f32>
    %187 = torch.vtensor.literal(dense_resource<__elided__> : tensor<2x16x5x5xf32>) : !torch.vtensor<[2,16,5,5],f32>
    %188 = torch.vtensor.literal(dense<0.000000e+00> : tensor<2xf32>) : !torch.vtensor<[2],f32>
    %189 = torch.aten.convolution %180, %187, %188, %163, %181, %182, %false_59, %164, %int1_58 : !torch.vtensor<[1,16,8,8],f32>, !torch.vtensor<[2,16,5,5],f32>, !torch.vtensor<[2],f32>, !torch.list<int>, !torch.list<int>, !torch.list<int>, !torch.bool, !torch.list<int>, !torch.int -> !torch.vtensor<[1,2,8,8],f32>
    %190 = torch.vtensor.literal(dense_resource<__elided__> : tensor<1x16x5x5xf32>) : !torch.vtensor<[1,16,5,5],f32>
    %191 = torch.vtensor.literal(dense<0.000000e+00> : tensor<1xf32>) : !torch.vtensor<[1],f32>
    %192 = torch.aten.convolution %180, %190, %191, %163, %181, %182, %false_59, %164, %int1_58 : !torch.vtensor<[1,16,8,8],f32>, !torch.vtensor<[1,16,5,5],f32>, !torch.vtensor<[1],f32>, !torch.list<int>, !torch.list<int>, !torch.list<int>, !torch.bool, !torch.list<int>, !torch.int -> !torch.vtensor<[1,1,8,8],f32>
    %193 = torch.prim.ListConstruct %186, %189, %192 : (!torch.vtensor<[1,13,8,8],f32>, !torch.vtensor<[1,2,8,8],f32>, !torch.vtensor<[1,1,8,8],f32>) -> !torch.list<vtensor>
    %int1_70 = torch.constant.int 1
    %194 = torch.aten.cat %193, %int1_70 : !torch.list<vtensor>, !torch.int -> !torch.vtensor<[1,16,8,8],f32>
    %195 = torch.aten.relu %194 : !torch.vtensor<[1,16,8,8],f32> -> !torch.vtensor<[1,16,8,8],f32>
    %196 = torch.vtensor.literal(dense<0.000000e+00> : tensor<1x16x8x8xf32>) : !torch.vtensor<[1,16,8,8],f32>
    %float0.000000e00_71 = torch.constant.float 0.000000e+00
    %197 = torch.aten.add.Tensor %195, %196, %float0.000000e00_71 : !torch.vtensor<[1,16,8,8],f32>, !torch.vtensor<[1,16,8,8],f32>, !torch.float -> !torch.vtensor<[1,16,8,8],f32>
    %198 = torch.vtensor.literal(dense<0.000000e+00> : tensor<1x16x8x8xf32>) : !torch.vtensor<[1,16,8,8],f32>
    %float0.000000e00_72 = torch.constant.float 0.000000e+00
    %199 = torch.aten.add.Tensor %197, %198, %float0.000000e00_72 : !torch.vtensor<[1,16,8,8],f32>, !torch.vtensor<[1,16,8,8],f32>, !torch.float -> !torch.vtensor<[1,16,8,8],f32>
    %200 = torch.vtensor.literal(dense<0.000000e+00> : tensor<1x16x8x8xf32>) : !torch.vtensor<[1,16,8,8],f32>
    %float0.000000e00_73 = torch.constant.float 0.000000e+00
    %201 = torch.aten.add.Tensor %199, %200, %float0.000000e00_73 : !torch.vtensor<[1,16,8,8],f32>, !torch.vtensor<[1,16,8,8],f32>, !torch.float -> !torch.vtensor<[1,16,8,8],f32>
    %202 = torch.vtensor.literal(dense<0.000000e+00> : tensor<1x16x8x8xf32>) : !torch.vtensor<[1,16,8,8],f32>
    %float0.000000e00_74 = torch.constant.float 0.000000e+00
    %203 = torch.aten.add.Tensor %201, %202, %float0.000000e00_74 : !torch.vtensor<[1,16,8,8],f32>, !torch.vtensor<[1,16,8,8],f32>, !torch.float -> !torch.vtensor<[1,16,8,8],f32>
    %204 = torch.vtensor.literal(dense<0.000000e+00> : tensor<1x16x8x8xf32>) : !torch.vtensor<[1,16,8,8],f32>
    %float0.000000e00_75 = torch.constant.float 0.000000e+00
    %205 = torch.aten.add.Tensor %203, %204, %float0.000000e00_75 : !torch.vtensor<[1,16,8,8],f32>, !torch.vtensor<[1,16,8,8],f32>, !torch.float -> !torch.vtensor<[1,16,8,8],f32>
    %206 = torch.vtensor.literal(dense<0.000000e+00> : tensor<1x16x8x8xf32>) : !torch.vtensor<[1,16,8,8],f32>
    %float0.000000e00_76 = torch.constant.float 0.000000e+00
    %207 = torch.aten.add.Tensor %205, %206, %float0.000000e00_76 : !torch.vtensor<[1,16,8,8],f32>, !torch.vtensor<[1,16,8,8],f32>, !torch.float -> !torch.vtensor<[1,16,8,8],f32>
    %208 = torch.aten.max_pool2d %207, %136, %136, %9, %8, %false : !torch.vtensor<[1,16,8,8],f32>, !torch.list<int>, !torch.list<int>, !torch.list<int>, !torch.list<int>, !torch.bool -> !torch.vtensor<[1,16,4,4],f32>
    %209 = torch.prim.ListConstruct %int1, %int-1 : (!torch.int, !torch.int) -> !torch.list<int>
    %210 = torch.aten.view %208, %209 : !torch.vtensor<[1,16,4,4],f32>, !torch.list<int> -> !torch.vtensor<[1,256],f32>
    %211 = torch.aten.transpose.int %5, %int0, %int1 : !torch.vtensor<[120,256],f32>, !torch.int, !torch.int -> !torch.vtensor<[256,120],f32>
    %212 = torch.aten.mm %210, %211 : !torch.vtensor<[1,256],f32>, !torch.vtensor<[256,120],f32> -> !torch.vtensor<[1,120],f32>
    %213 = torch.aten.add.Tensor %212, %4, %float1.000000e00 : !torch.vtensor<[1,120],f32>, !torch.vtensor<[120],f32>, !torch.float -> !torch.vtensor<[1,120],f32>
    %214 = torch.aten.relu %213 : !torch.vtensor<[1,120],f32> -> !torch.vtensor<[1,120],f32>
    %215 = torch.vtensor.literal(dense<0.000000e+00> : tensor<1x120xf32>) : !torch.vtensor<[1,120],f32>
    %float0.000000e00_77 = torch.constant.float 0.000000e+00
    %216 = torch.aten.add.Tensor %214, %215, %float0.000000e00_77 : !torch.vtensor<[1,120],f32>, !torch.vtensor<[1,120],f32>, !torch.float -> !torch.vtensor<[1,120],f32>
    %float0.000000e00_78 = torch.constant.float 0.000000e+00
    %217 = torch.aten.relu %216 : !torch.vtensor<[1,120],f32> -> !torch.vtensor<[1,120],f32>
    %218 = torch.vtensor.literal(dense<0.000000e+00> : tensor<1x120xf32>) : !torch.vtensor<[1,120],f32>
    %float0.000000e00_79 = torch.constant.float 0.000000e+00
    %219 = torch.aten.add.Tensor %217, %218, %float0.000000e00_79 : !torch.vtensor<[1,120],f32>, !torch.vtensor<[1,120],f32>, !torch.float -> !torch.vtensor<[1,120],f32>
    %220 = torch.vtensor.literal(dense<0.000000e+00> : tensor<1x120xf32>) : !torch.vtensor<[1,120],f32>
    %float0.000000e00_80 = torch.constant.float 0.000000e+00
    %221 = torch.aten.add.Tensor %219, %220, %float0.000000e00_80 : !torch.vtensor<[1,120],f32>, !torch.vtensor<[1,120],f32>, !torch.float -> !torch.vtensor<[1,120],f32>
    %222 = torch.vtensor.literal(dense<0.000000e+00> : tensor<1x120xf32>) : !torch.vtensor<[1,120],f32>
    %float0.000000e00_81 = torch.constant.float 0.000000e+00
    %223 = torch.aten.add.Tensor %221, %222, %float0.000000e00_81 : !torch.vtensor<[1,120],f32>, !torch.vtensor<[1,120],f32>, !torch.float -> !torch.vtensor<[1,120],f32>
    %224 = torch.vtensor.literal(dense<0.000000e+00> : tensor<1x120xf32>) : !torch.vtensor<[1,120],f32>
    %float0.000000e00_82 = torch.constant.float 0.000000e+00
    %225 = torch.aten.add.Tensor %223, %224, %float0.000000e00_82 : !torch.vtensor<[1,120],f32>, !torch.vtensor<[1,120],f32>, !torch.float -> !torch.vtensor<[1,120],f32>
    %226 = torch.vtensor.literal(dense<0.000000e+00> : tensor<1x120xf32>) : !torch.vtensor<[1,120],f32>
    %float0.000000e00_83 = torch.constant.float 0.000000e+00
    %227 = torch.aten.add.Tensor %225, %226, %float0.000000e00_83 : !torch.vtensor<[1,120],f32>, !torch.vtensor<[1,120],f32>, !torch.float -> !torch.vtensor<[1,120],f32>
    %228 = torch.aten.transpose.int %3, %int0, %int1 : !torch.vtensor<[84,120],f32>, !torch.int, !torch.int -> !torch.vtensor<[120,84],f32>
    %229 = torch.aten.mm %227, %228 : !torch.vtensor<[1,120],f32>, !torch.vtensor<[120,84],f32> -> !torch.vtensor<[1,84],f32>
    %230 = torch.aten.add.Tensor %229, %2, %float1.000000e00 : !torch.vtensor<[1,84],f32>, !torch.vtensor<[84],f32>, !torch.float -> !torch.vtensor<[1,84],f32>
    %231 = torch.aten.relu %230 : !torch.vtensor<[1,84],f32> -> !torch.vtensor<[1,84],f32>
    %232 = torch.vtensor.literal(dense<0.000000e+00> : tensor<1x84xf32>) : !torch.vtensor<[1,84],f32>
    %float0.000000e00_84 = torch.constant.float 0.000000e+00
    %233 = torch.aten.add.Tensor %231, %232, %float0.000000e00_84 : !torch.vtensor<[1,84],f32>, !torch.vtensor<[1,84],f32>, !torch.float -> !torch.vtensor<[1,84],f32>
    %234 = torch.vtensor.literal(dense<0.000000e+00> : tensor<1x84xf32>) : !torch.vtensor<[1,84],f32>
    %float0.000000e00_85 = torch.constant.float 0.000000e+00
    %235 = torch.aten.add.Tensor %233, %234, %float0.000000e00_85 : !torch.vtensor<[1,84],f32>, !torch.vtensor<[1,84],f32>, !torch.float -> !torch.vtensor<[1,84],f32>
    %236 = torch.vtensor.literal(dense<0.000000e+00> : tensor<1x84xf32>) : !torch.vtensor<[1,84],f32>
    %float0.000000e00_86 = torch.constant.float 0.000000e+00
    %237 = torch.aten.add.Tensor %235, %236, %float0.000000e00_86 : !torch.vtensor<[1,84],f32>, !torch.vtensor<[1,84],f32>, !torch.float -> !torch.vtensor<[1,84],f32>
    %238 = torch.vtensor.literal(dense<0.000000e+00> : tensor<1x84xf32>) : !torch.vtensor<[1,84],f32>
    %float0.000000e00_87 = torch.constant.float 0.000000e+00
    %239 = torch.aten.add.Tensor %237, %238, %float0.000000e00_87 : !torch.vtensor<[1,84],f32>, !torch.vtensor<[1,84],f32>, !torch.float -> !torch.vtensor<[1,84],f32>
    %240 = torch.vtensor.literal(dense<0.000000e+00> : tensor<1x84xf32>) : !torch.vtensor<[1,84],f32>
    %float0.000000e00_88 = torch.constant.float 0.000000e+00
    %241 = torch.aten.add.Tensor %239, %240, %float0.000000e00_88 : !torch.vtensor<[1,84],f32>, !torch.vtensor<[1,84],f32>, !torch.float -> !torch.vtensor<[1,84],f32>
    %242 = torch.aten.transpose.int %1, %int0, %int1 : !torch.vtensor<[10,84],f32>, !torch.int, !torch.int -> !torch.vtensor<[84,10],f32>
    %243 = torch.aten.mm %241, %242 : !torch.vtensor<[1,84],f32>, !torch.vtensor<[84,10],f32> -> !torch.vtensor<[1,10],f32>
    %244 = torch.aten.add.Tensor %243, %0, %float1.000000e00 : !torch.vtensor<[1,10],f32>, !torch.vtensor<[10],f32>, !torch.float -> !torch.vtensor<[1,10],f32>
    return %244 : !torch.vtensor<[1,10],f32>
  }
}

================
after lower to linalg
================
Traceback (most recent call last):
  File "/home/pingmu123/torch-mlir/examples/DeObfTest/test_all.py", line 187, in <module>
    torch_mlir.compiler_utils.run_pipeline_with_repro_report(
  File "/home/pingmu123/torch-mlir/build/python_packages/torch_mlir/torch_mlir/compiler_utils.py", line 73, in run_pipeline_with_repro_report
    raise TorchMlirCompilerError(trimmed_message) from None
torch_mlir.compiler_utils.TorchMlirCompilerError: Lowering Torch Backend IR -> Linalg-on-Tensors Backend IR failed with the following diagnostics:
error: 'tensor.cast' op operand type 'tensor<1x3x12x12xf32>' and result type 'tensor<1x6x12x12xf32>' are cast incompatible
note: see current operation: %2453 = "tensor.cast"(%2451) : (tensor<1x3x12x12xf32>) -> tensor<1x6x12x12xf32>


For Torch-MLIR developers, the error can be reproduced with:
$ torch-mlir-opt -pass-pipeline='builtin.module(torch-backend-to-linalg-on-tensors-backend-pipeline)' /tmp/LeNet5.mlir
Add '-mlir-print-ir-after-all -mlir-disable-threading' to get the IR dump for debugging purpose.

[?2004h]0;pingmu123@LAPTOP-SA8SOC9R: ~/torch-mlir/examples/DeObfTest[01;32mpingmu123@LAPTOP-SA8SOC9R[00m:[01;34m~/torch-mlir/examples/DeObfTest[00m$ python test_all.py exit[K
[?2004lexit

Script done on 2023-05-24 12:39:20+08:00 [COMMAND_EXIT_CODE="1"]
