digraph G {
  compound = true;
  subgraph cluster_1 {
    v2 [label = " ", shape = plain];
    label = "builtin.module : ())\n\ntorch.debug_module_name: \"LeNet\"";
    subgraph cluster_3 {
      v4 [label = " ", shape = plain];
      label = "";
      subgraph cluster_5 {
        v6 [label = " ", shape = plain];
        label = "func.func : ())\n\nfunction_type: (!torch.vtensor<[1,1...\nsym_name: \"forward\"";
        subgraph cluster_7 {
          v8 [label = " ", shape = plain];
          label = "";
          v9 [label = "arg0", shape = ellipse];
          v10 [label = "torch.constant.int : (!torch.int))\n\nvalue: 0 : i64", shape = ellipse];
          v11 [label = "torch.constant.int : (!torch.int))\n\nvalue: 1 : i64", shape = ellipse];
          v12 [label = "torch.constant.float : (!torch.float))\n\nvalue: 1.000000e+00 : f64", shape = ellipse];
          v13 [label = "torch.constant.int : (!torch.int))\n\nvalue: -1 : i64", shape = ellipse];
          v14 [label = "torch.constant.bool : (!torch.bool))\n\nvalue: false", shape = ellipse];
          v15 [label = "torch.vtensor.literal : (!torch.vtensor<[10],...))\n\nvalue: dense<[-0.0462377556...", shape = ellipse];
          v16 [label = "torch.vtensor.literal : (!torch.vtensor<[10,8...))\n\nvalue: [[...]] : tensor<10x84xf32>", shape = ellipse];
          v17 [label = "torch.vtensor.literal : (!torch.vtensor<[84],...))\n\nvalue: [...] : tensor<84xf32>", shape = ellipse];
          v18 [label = "torch.vtensor.literal : (!torch.vtensor<[84,1...))\n\nvalue: [[...]] : tensor<84x120xf32>", shape = ellipse];
          v19 [label = "torch.vtensor.literal : (!torch.vtensor<[120]...))\n\nvalue: [...] : tensor<120xf32>", shape = ellipse];
          v20 [label = "torch.vtensor.literal : (!torch.vtensor<[120,...))\n\nvalue: [[...]] : tensor<120x256xf32>", shape = ellipse];
          v21 [label = "torch.vtensor.literal : (!torch.vtensor<[16],...))\n\nvalue: dense_resource<__eli...", shape = ellipse];
          v22 [label = "torch.vtensor.literal : (!torch.vtensor<[16,6...))\n\nvalue: [[[[...]]]] : tensor<16x6x5x5xf32>", shape = ellipse];
          v23 [label = "torch.vtensor.literal : (!torch.vtensor<[6],f...))\n\nvalue: dense<[0.0428990386,...", shape = ellipse];
          v24 [label = "torch.vtensor.literal : (!torch.vtensor<[6,1,...))\n\nvalue: [[[[...]]]] : tensor<6x1x5x5xf32>", shape = ellipse];
          v25 [label = "torch.constant.int : (!torch.int))\n\nvalue: 2 : i64", shape = ellipse];
          v26 [label = "torch.prim.ListConstruct : (!torch.list<int>))\n", shape = ellipse];
          v27 [label = "torch.prim.ListConstruct : (!torch.list<int>))\n", shape = ellipse];
          v28 [label = "torch.prim.ListConstruct : (!torch.list<int>))\n", shape = ellipse];
          v29 [label = "torch.aten.convolution : (!torch.vtensor<[1,6,...))\n", shape = ellipse];
          v30 [label = "torch.aten.relu : (!torch.vtensor<[1,6,...))\n", shape = ellipse];
          v31 [label = "torch.prim.ListConstruct : (!torch.list<int>))\n", shape = ellipse];
          v32 [label = "torch.aten.max_pool2d : (!torch.vtensor<[1,6,...))\n", shape = ellipse];
          v33 [label = "torch.prim.ListConstruct : (!torch.list<int>))\n", shape = ellipse];
          v34 [label = "torch.aten.convolution : (!torch.vtensor<[1,16...))\n", shape = ellipse];
          v35 [label = "torch.aten.relu : (!torch.vtensor<[1,16...))\n", shape = ellipse];
          v36 [label = "torch.aten.max_pool2d : (!torch.vtensor<[1,16...))\n", shape = ellipse];
          v37 [label = "torch.prim.ListConstruct : (!torch.list<int>))\n", shape = ellipse];
          v38 [label = "torch.aten.view : (!torch.vtensor<[1,25...))\n", shape = ellipse];
          v39 [label = "torch.aten.transpose.int : (!torch.vtensor<[256,...))\n", shape = ellipse];
          v40 [label = "torch.aten.mm : (!torch.vtensor<[1,12...))\n", shape = ellipse];
          v41 [label = "torch.aten.add.Tensor : (!torch.vtensor<[1,12...))\n", shape = ellipse];
          v42 [label = "torch.aten.relu : (!torch.vtensor<[1,12...))\n", shape = ellipse];
          v43 [label = "torch.aten.transpose.int : (!torch.vtensor<[120,...))\n", shape = ellipse];
          v44 [label = "torch.aten.mm : (!torch.vtensor<[1,84...))\n", shape = ellipse];
          v45 [label = "torch.aten.add.Tensor : (!torch.vtensor<[1,84...))\n", shape = ellipse];
          v46 [label = "torch.aten.relu : (!torch.vtensor<[1,84...))\n", shape = ellipse];
          v47 [label = "torch.aten.transpose.int : (!torch.vtensor<[84,1...))\n", shape = ellipse];
          v48 [label = "torch.aten.mm : (!torch.vtensor<[1,10...))\n", shape = ellipse];
          v49 [label = "torch.aten.add.Tensor : (!torch.vtensor<[1,10...))\n", shape = ellipse];
          v50 [label = "func.return : ())\n", shape = ellipse];
        }
      }
    }
  }
  v11 -> v26 [label = "0", style = solid];
  v11 -> v26 [label = "1", style = solid];
  v10 -> v27 [label = "0", style = solid];
  v10 -> v27 [label = "1", style = solid];
  v9 -> v29 [label = "0", style = solid];
  v24 -> v29 [label = "1", style = solid];
  v23 -> v29 [label = "2", style = solid];
  v26 -> v29 [label = "3", style = solid];
  v27 -> v29 [label = "4", style = solid];
  v26 -> v29 [label = "5", style = solid];
  v14 -> v29 [label = "6", style = solid];
  v28 -> v29 [label = "7", style = solid];
  v11 -> v29 [label = "8", style = solid];
  v29 -> v30 [label = "", style = solid];
  v25 -> v31 [label = "0", style = solid];
  v25 -> v31 [label = "1", style = solid];
  v30 -> v32 [label = "0", style = solid];
  v31 -> v32 [label = "1", style = solid];
  v31 -> v32 [label = "2", style = solid];
  v27 -> v32 [label = "3", style = solid];
  v26 -> v32 [label = "4", style = solid];
  v14 -> v32 [label = "5", style = solid];
  v32 -> v34 [label = "0", style = solid];
  v22 -> v34 [label = "1", style = solid];
  v21 -> v34 [label = "2", style = solid];
  v26 -> v34 [label = "3", style = solid];
  v27 -> v34 [label = "4", style = solid];
  v26 -> v34 [label = "5", style = solid];
  v14 -> v34 [label = "6", style = solid];
  v33 -> v34 [label = "7", style = solid];
  v11 -> v34 [label = "8", style = solid];
  v34 -> v35 [label = "", style = solid];
  v35 -> v36 [label = "0", style = solid];
  v31 -> v36 [label = "1", style = solid];
  v31 -> v36 [label = "2", style = solid];
  v27 -> v36 [label = "3", style = solid];
  v26 -> v36 [label = "4", style = solid];
  v14 -> v36 [label = "5", style = solid];
  v11 -> v37 [label = "0", style = solid];
  v13 -> v37 [label = "1", style = solid];
  v36 -> v38 [label = "0", style = solid];
  v37 -> v38 [label = "1", style = solid];
  v20 -> v39 [label = "0", style = solid];
  v10 -> v39 [label = "1", style = solid];
  v11 -> v39 [label = "2", style = solid];
  v38 -> v40 [label = "0", style = solid];
  v39 -> v40 [label = "1", style = solid];
  v40 -> v41 [label = "0", style = solid];
  v19 -> v41 [label = "1", style = solid];
  v12 -> v41 [label = "2", style = solid];
  v41 -> v42 [label = "", style = solid];
  v18 -> v43 [label = "0", style = solid];
  v10 -> v43 [label = "1", style = solid];
  v11 -> v43 [label = "2", style = solid];
  v42 -> v44 [label = "0", style = solid];
  v43 -> v44 [label = "1", style = solid];
  v44 -> v45 [label = "0", style = solid];
  v17 -> v45 [label = "1", style = solid];
  v12 -> v45 [label = "2", style = solid];
  v45 -> v46 [label = "", style = solid];
  v16 -> v47 [label = "0", style = solid];
  v10 -> v47 [label = "1", style = solid];
  v11 -> v47 [label = "2", style = solid];
  v46 -> v48 [label = "0", style = solid];
  v47 -> v48 [label = "1", style = solid];
  v48 -> v49 [label = "0", style = solid];
  v15 -> v49 [label = "1", style = solid];
  v12 -> v49 [label = "2", style = solid];
  v49 -> v50 [label = "", style = solid];
}

